<?xml version="1.0"?>
<net name="main_graph" version="11">
	<layers>
		<layer id="8" name="input" type="Parameter" version="opset1">
			<data shape="1,1280" element_type="f32" />
			<output>
				<port id="0" precision="FP32" names="input">
					<dim>1</dim>
					<dim>1280</dim>
				</port>
			</output>
		</layer>
		<layer id="7" name="inp_state_000" type="Parameter" version="opset1">
			<data shape="1,160" element_type="f32" />
			<output>
				<port id="0" precision="FP32" names="inp_state_000">
					<dim>1</dim>
					<dim>160</dim>
				</port>
			</output>
		</layer>
		<layer id="6" name="inp_state_001" type="Parameter" version="opset1">
			<data shape="1,161,1,2" element_type="f32" />
			<output>
				<port id="0" precision="FP32" names="inp_state_001">
					<dim>1</dim>
					<dim>161</dim>
					<dim>1</dim>
					<dim>2</dim>
				</port>
			</output>
		</layer>
		<layer id="5" name="inp_state_002" type="Parameter" version="opset1">
			<data shape="1,64" element_type="f32" />
			<output>
				<port id="0" precision="FP32" names="inp_state_002">
					<dim>1</dim>
					<dim>64</dim>
				</port>
			</output>
		</layer>
		<layer id="4" name="inp_state_003" type="Parameter" version="opset1">
			<data shape="2,1,162,192" element_type="f32" />
			<output>
				<port id="0" precision="FP32" names="inp_state_003">
					<dim>2</dim>
					<dim>1</dim>
					<dim>162</dim>
					<dim>192</dim>
				</port>
			</output>
		</layer>
		<layer id="3" name="inp_state_004" type="Parameter" version="opset1">
			<data shape="2,8,1288,56" element_type="f32" />
			<output>
				<port id="0" precision="FP32" names="inp_state_004">
					<dim>2</dim>
					<dim>8</dim>
					<dim>1288</dim>
					<dim>56</dim>
				</port>
			</output>
		</layer>
		<layer id="2" name="inp_state_005" type="Parameter" version="opset1">
			<data shape="2,8,56,1288" element_type="f32" />
			<output>
				<port id="0" precision="FP32" names="inp_state_005">
					<dim>2</dim>
					<dim>8</dim>
					<dim>56</dim>
					<dim>1288</dim>
				</port>
			</output>
		</layer>
		<layer id="1" name="inp_state_006" type="Parameter" version="opset1">
			<data shape="1,2,2,161" element_type="f32" />
			<output>
				<port id="0" precision="FP32" names="inp_state_006">
					<dim>1</dim>
					<dim>2</dim>
					<dim>2</dim>
					<dim>161</dim>
				</port>
			</output>
		</layer>
		<layer id="0" name="inp_state_007" type="Parameter" version="opset1">
			<data shape="1,2,8,161" element_type="f32" />
			<output>
				<port id="0" precision="FP32" names="inp_state_007">
					<dim>1</dim>
					<dim>2</dim>
					<dim>8</dim>
					<dim>161</dim>
				</port>
			</output>
		</layer>
		<layer id="9" name="/neural_model/Concat_7_output_0" type="Const" version="opset1">
			<data element_type="i64" shape="1, 2, 2, 161, 4" offset="0" size="20608" />
			<output>
				<port id="0" precision="I64" names="/neural_model/Concat_7_output_0">
					<dim>1</dim>
					<dim>2</dim>
					<dim>2</dim>
					<dim>161</dim>
					<dim>4</dim>
				</port>
			</output>
		</layer>
		<layer id="10" name="/Concat" type="Concat" version="opset1">
			<data axis="1" />
			<input>
				<port id="0" precision="FP32">
					<dim>1</dim>
					<dim>160</dim>
				</port>
				<port id="1" precision="FP32">
					<dim>1</dim>
					<dim>1280</dim>
				</port>
			</input>
			<output>
				<port id="2" precision="FP32" names="/Concat_output_0">
					<dim>1</dim>
					<dim>1440</dim>
				</port>
			</output>
		</layer>
		<layer id="11" name="/Constant_1_output_0" type="Const" version="opset1">
			<data element_type="i64" shape="1" offset="20608" size="8" />
			<output>
				<port id="0" precision="I64" names="/Constant_1_output_0">
					<dim>1</dim>
				</port>
			</output>
		</layer>
		<layer id="12" name="/Unsqueeze" type="Unsqueeze" version="opset1">
			<input>
				<port id="0" precision="FP32">
					<dim>1</dim>
					<dim>1440</dim>
				</port>
				<port id="1" precision="I64">
					<dim>1</dim>
				</port>
			</input>
			<output>
				<port id="2" precision="FP32" names="/Unsqueeze_output_0">
					<dim>1</dim>
					<dim>1</dim>
					<dim>1440</dim>
				</port>
			</output>
		</layer>
		<layer id="13" name="stft.forward_basis_compressed" type="Const" version="opset1">
			<data element_type="f16" shape="322, 1, 320" offset="20616" size="206080" />
			<output>
				<port id="0" precision="FP16" names="stft.forward_basis">
					<dim>322</dim>
					<dim>1</dim>
					<dim>320</dim>
				</port>
			</output>
		</layer>
		<layer id="14" name="stft.forward_basis" type="Convert" version="opset1">
			<data destination_type="f32" />
			<rt_info>
				<attribute name="decompression" version="0" />
			</rt_info>
			<input>
				<port id="0" precision="FP16">
					<dim>322</dim>
					<dim>1</dim>
					<dim>320</dim>
				</port>
			</input>
			<output>
				<port id="1" precision="FP32">
					<dim>322</dim>
					<dim>1</dim>
					<dim>320</dim>
				</port>
			</output>
		</layer>
		<layer id="15" name="/Conv" type="Convolution" version="opset1">
			<data strides="160" dilations="1" pads_begin="0" pads_end="0" auto_pad="explicit" />
			<input>
				<port id="0" precision="FP32">
					<dim>1</dim>
					<dim>1</dim>
					<dim>1440</dim>
				</port>
				<port id="1" precision="FP32">
					<dim>322</dim>
					<dim>1</dim>
					<dim>320</dim>
				</port>
			</input>
			<output>
				<port id="2" precision="FP32" names="/Conv_output_0">
					<dim>1</dim>
					<dim>322</dim>
					<dim>8</dim>
				</port>
			</output>
		</layer>
		<layer id="16" name="/Constant_4_output_0" type="Const" version="opset1">
			<data element_type="i64" shape="1" offset="226696" size="8" />
			<output>
				<port id="0" precision="I64" names="/Constant_4_output_0">
					<dim>1</dim>
				</port>
			</output>
		</layer>
		<layer id="17" name="/Constant_5_output_0" type="Const" version="opset1">
			<data element_type="i64" shape="1" offset="226704" size="8" />
			<output>
				<port id="0" precision="I64" names="/Constant_5_output_0">
					<dim>1</dim>
				</port>
			</output>
		</layer>
		<layer id="18" name="/Slice" type="Slice" version="opset8">
			<input>
				<port id="0" precision="FP32">
					<dim>1</dim>
					<dim>322</dim>
					<dim>8</dim>
				</port>
				<port id="1" precision="I64">
					<dim>1</dim>
				</port>
				<port id="2" precision="I64">
					<dim>1</dim>
				</port>
				<port id="3" precision="I64">
					<dim>1</dim>
				</port>
				<port id="4" precision="I64">
					<dim>1</dim>
				</port>
			</input>
			<output>
				<port id="5" precision="FP32" names="/Slice_output_0">
					<dim>1</dim>
					<dim>161</dim>
					<dim>8</dim>
				</port>
			</output>
		</layer>
		<layer id="19" name="/Constant_11_output_0" type="Const" version="opset1">
			<data element_type="i64" shape="1" offset="226712" size="8" />
			<output>
				<port id="0" precision="I64" names="/Constant_11_output_0">
					<dim>1</dim>
				</port>
			</output>
		</layer>
		<layer id="20" name="/Unsqueeze_1" type="Unsqueeze" version="opset1">
			<input>
				<port id="0" precision="FP32">
					<dim>1</dim>
					<dim>161</dim>
					<dim>8</dim>
				</port>
				<port id="1" precision="I64">
					<dim>1</dim>
				</port>
			</input>
			<output>
				<port id="2" precision="FP32" names="/Unsqueeze_1_output_0">
					<dim>1</dim>
					<dim>161</dim>
					<dim>8</dim>
					<dim>1</dim>
				</port>
			</output>
		</layer>
		<layer id="21" name="/Constant_9_output_0" type="Const" version="opset1">
			<data element_type="i64" shape="1" offset="226720" size="8" />
			<output>
				<port id="0" precision="I64" names="/Constant_9_output_0">
					<dim>1</dim>
				</port>
			</output>
		</layer>
		<layer id="22" name="/Slice_1" type="Slice" version="opset8">
			<input>
				<port id="0" precision="FP32">
					<dim>1</dim>
					<dim>322</dim>
					<dim>8</dim>
				</port>
				<port id="1" precision="I64">
					<dim>1</dim>
				</port>
				<port id="2" precision="I64">
					<dim>1</dim>
				</port>
				<port id="3" precision="I64">
					<dim>1</dim>
				</port>
				<port id="4" precision="I64">
					<dim>1</dim>
				</port>
			</input>
			<output>
				<port id="5" precision="FP32" names="/Slice_1_output_0">
					<dim>1</dim>
					<dim>161</dim>
					<dim>8</dim>
				</port>
			</output>
		</layer>
		<layer id="23" name="/Unsqueeze_2" type="Unsqueeze" version="opset1">
			<input>
				<port id="0" precision="FP32">
					<dim>1</dim>
					<dim>161</dim>
					<dim>8</dim>
				</port>
				<port id="1" precision="I64">
					<dim>1</dim>
				</port>
			</input>
			<output>
				<port id="2" precision="FP32" names="/Unsqueeze_2_output_0">
					<dim>1</dim>
					<dim>161</dim>
					<dim>8</dim>
					<dim>1</dim>
				</port>
			</output>
		</layer>
		<layer id="24" name="/Concat_1" type="Concat" version="opset1">
			<data axis="3" />
			<input>
				<port id="0" precision="FP32">
					<dim>1</dim>
					<dim>161</dim>
					<dim>8</dim>
					<dim>1</dim>
				</port>
				<port id="1" precision="FP32">
					<dim>1</dim>
					<dim>161</dim>
					<dim>8</dim>
					<dim>1</dim>
				</port>
			</input>
			<output>
				<port id="2" precision="FP32" names="/Concat_1_output_0">
					<dim>1</dim>
					<dim>161</dim>
					<dim>8</dim>
					<dim>2</dim>
				</port>
			</output>
		</layer>
		<layer id="25" name="Constant_375" type="Const" version="opset1">
			<data element_type="i64" shape="4" offset="226728" size="32" />
			<output>
				<port id="0" precision="I64">
					<dim>4</dim>
				</port>
			</output>
		</layer>
		<layer id="26" name="/neural_model/Transpose" type="Transpose" version="opset1">
			<input>
				<port id="0" precision="FP32">
					<dim>1</dim>
					<dim>161</dim>
					<dim>8</dim>
					<dim>2</dim>
				</port>
				<port id="1" precision="I64">
					<dim>4</dim>
				</port>
			</input>
			<output>
				<port id="2" precision="FP32" names="/neural_model/Transpose_output_0">
					<dim>1</dim>
					<dim>2</dim>
					<dim>8</dim>
					<dim>161</dim>
				</port>
			</output>
		</layer>
		<layer id="27" name="/neural_model/Concat" type="Concat" version="opset1">
			<data axis="2" />
			<input>
				<port id="0" precision="FP32">
					<dim>1</dim>
					<dim>2</dim>
					<dim>2</dim>
					<dim>161</dim>
				</port>
				<port id="1" precision="FP32">
					<dim>1</dim>
					<dim>2</dim>
					<dim>8</dim>
					<dim>161</dim>
				</port>
			</input>
			<output>
				<port id="2" precision="FP32" names="/neural_model/Concat_output_0">
					<dim>1</dim>
					<dim>2</dim>
					<dim>10</dim>
					<dim>161</dim>
				</port>
			</output>
		</layer>
		<layer id="28" name="onnx::Conv_3885_compressed" type="Const" version="opset1">
			<data element_type="f16" shape="64, 2, 3, 3" offset="226760" size="2304" />
			<output>
				<port id="0" precision="FP16" names="onnx::Conv_3885">
					<dim>64</dim>
					<dim>2</dim>
					<dim>3</dim>
					<dim>3</dim>
				</port>
			</output>
		</layer>
		<layer id="29" name="onnx::Conv_3885" type="Convert" version="opset1">
			<data destination_type="f32" />
			<rt_info>
				<attribute name="decompression" version="0" />
			</rt_info>
			<input>
				<port id="0" precision="FP16">
					<dim>64</dim>
					<dim>2</dim>
					<dim>3</dim>
					<dim>3</dim>
				</port>
			</input>
			<output>
				<port id="1" precision="FP32">
					<dim>64</dim>
					<dim>2</dim>
					<dim>3</dim>
					<dim>3</dim>
				</port>
			</output>
		</layer>
		<layer id="30" name="/neural_model/conv/conv.0/Conv/WithoutBiases" type="Convolution" version="opset1">
			<data strides="1, 1" dilations="1, 1" pads_begin="0, 1" pads_end="0, 1" auto_pad="explicit" />
			<input>
				<port id="0" precision="FP32">
					<dim>1</dim>
					<dim>2</dim>
					<dim>10</dim>
					<dim>161</dim>
				</port>
				<port id="1" precision="FP32">
					<dim>64</dim>
					<dim>2</dim>
					<dim>3</dim>
					<dim>3</dim>
				</port>
			</input>
			<output>
				<port id="2" precision="FP32">
					<dim>1</dim>
					<dim>64</dim>
					<dim>8</dim>
					<dim>161</dim>
				</port>
			</output>
		</layer>
		<layer id="31" name="Reshape_390_compressed" type="Const" version="opset1">
			<data element_type="f16" shape="1, 64, 1, 1" offset="229064" size="128" />
			<output>
				<port id="0" precision="FP16">
					<dim>1</dim>
					<dim>64</dim>
					<dim>1</dim>
					<dim>1</dim>
				</port>
			</output>
		</layer>
		<layer id="32" name="Reshape_390" type="Convert" version="opset1">
			<data destination_type="f32" />
			<rt_info>
				<attribute name="decompression" version="0" />
			</rt_info>
			<input>
				<port id="0" precision="FP16">
					<dim>1</dim>
					<dim>64</dim>
					<dim>1</dim>
					<dim>1</dim>
				</port>
			</input>
			<output>
				<port id="1" precision="FP32">
					<dim>1</dim>
					<dim>64</dim>
					<dim>1</dim>
					<dim>1</dim>
				</port>
			</output>
		</layer>
		<layer id="33" name="/neural_model/conv/conv.0/Conv" type="Add" version="opset1">
			<data auto_broadcast="numpy" />
			<input>
				<port id="0" precision="FP32">
					<dim>1</dim>
					<dim>64</dim>
					<dim>8</dim>
					<dim>161</dim>
				</port>
				<port id="1" precision="FP32">
					<dim>1</dim>
					<dim>64</dim>
					<dim>1</dim>
					<dim>1</dim>
				</port>
			</input>
			<output>
				<port id="2" precision="FP32" names="/neural_model/conv/conv.0/Conv_output_0">
					<dim>1</dim>
					<dim>64</dim>
					<dim>8</dim>
					<dim>161</dim>
				</port>
			</output>
		</layer>
		<layer id="34" name="/neural_model/fusion_blocks.0/Unsqueeze" type="Unsqueeze" version="opset1">
			<input>
				<port id="0" precision="FP32">
					<dim>1</dim>
					<dim>64</dim>
				</port>
				<port id="1" precision="I64">
					<dim>1</dim>
				</port>
			</input>
			<output>
				<port id="2" precision="FP32" names="/neural_model/fusion_blocks.0/Unsqueeze_output_0">
					<dim>1</dim>
					<dim>1</dim>
					<dim>64</dim>
				</port>
			</output>
		</layer>
		<layer id="35" name="/neural_model/fusion_blocks.0/Constant_2_output_0" type="Const" version="opset1">
			<data element_type="i64" shape="3" offset="229192" size="24" />
			<rt_info>
				<attribute name="precise" version="0" />
			</rt_info>
			<output>
				<port id="0" precision="I64" names="/neural_model/fusion_blocks.0/Constant_2_output_0">
					<dim>3</dim>
				</port>
			</output>
		</layer>
		<layer id="36" name="/neural_model/fusion_blocks.0/Tile" type="Tile" version="opset1">
			<input>
				<port id="0" precision="FP32">
					<dim>1</dim>
					<dim>1</dim>
					<dim>64</dim>
				</port>
				<port id="1" precision="I64">
					<dim>3</dim>
				</port>
			</input>
			<output>
				<port id="2" precision="FP32" names="/neural_model/fusion_blocks.0/Tile_output_0">
					<dim>1</dim>
					<dim>161</dim>
					<dim>64</dim>
				</port>
			</output>
		</layer>
		<layer id="37" name="ShapeOf_404" type="ShapeOf" version="opset3">
			<data output_type="i64" />
			<input>
				<port id="0" precision="FP32">
					<dim>1</dim>
					<dim>161</dim>
					<dim>64</dim>
				</port>
			</input>
			<output>
				<port id="1" precision="I64">
					<dim>3</dim>
				</port>
			</output>
		</layer>
		<layer id="38" name="Constant_407" type="Const" version="opset1">
			<data element_type="i64" shape="1" offset="226696" size="8" />
			<rt_info>
				<attribute name="precise" version="0" />
			</rt_info>
			<output>
				<port id="0" precision="I64">
					<dim>1</dim>
				</port>
			</output>
		</layer>
		<layer id="39" name="Constant_406" type="Const" version="opset1">
			<data element_type="i64" shape="1" offset="229216" size="8" />
			<rt_info>
				<attribute name="precise" version="0" />
			</rt_info>
			<output>
				<port id="0" precision="I64">
					<dim>1</dim>
				</port>
			</output>
		</layer>
		<layer id="40" name="Constant_408" type="Const" version="opset1">
			<data element_type="i64" shape="1" offset="20608" size="8" />
			<rt_info>
				<attribute name="precise" version="0" />
			</rt_info>
			<output>
				<port id="0" precision="I64">
					<dim>1</dim>
				</port>
			</output>
		</layer>
		<layer id="41" name="StridedSlice_409" type="StridedSlice" version="opset1">
			<data begin_mask="0" end_mask="0" new_axis_mask="" shrink_axis_mask="" ellipsis_mask="" />
			<input>
				<port id="0" precision="I64">
					<dim>3</dim>
				</port>
				<port id="1" precision="I64">
					<dim>1</dim>
				</port>
				<port id="2" precision="I64">
					<dim>1</dim>
				</port>
				<port id="3" precision="I64">
					<dim>1</dim>
				</port>
			</input>
			<output>
				<port id="4" precision="I64">
					<dim>2</dim>
				</port>
			</output>
		</layer>
		<layer id="42" name="Constant_410" type="Const" version="opset1">
			<data element_type="i64" shape="" offset="226696" size="8" />
			<rt_info>
				<attribute name="precise" version="0" />
			</rt_info>
			<output>
				<port id="0" precision="I64" />
			</output>
		</layer>
		<layer id="43" name="ReduceProd_411" type="ReduceProd" version="opset1">
			<data keep_dims="true" />
			<input>
				<port id="0" precision="I64">
					<dim>2</dim>
				</port>
				<port id="1" precision="I64" />
			</input>
			<output>
				<port id="2" precision="I64">
					<dim>1</dim>
				</port>
			</output>
		</layer>
		<layer id="44" name="Constant_412" type="Const" version="opset1">
			<data element_type="i64" shape="1" offset="229224" size="8" />
			<rt_info>
				<attribute name="precise" version="0" />
			</rt_info>
			<output>
				<port id="0" precision="I64">
					<dim>1</dim>
				</port>
			</output>
		</layer>
		<layer id="45" name="Concat_413" type="Concat" version="opset1">
			<data axis="0" />
			<input>
				<port id="0" precision="I64">
					<dim>1</dim>
				</port>
				<port id="1" precision="I64">
					<dim>1</dim>
				</port>
			</input>
			<output>
				<port id="2" precision="I64">
					<dim>2</dim>
				</port>
			</output>
		</layer>
		<layer id="46" name="/neural_model/fusion_blocks.0/Flatten" type="Reshape" version="opset1">
			<data special_zero="true" />
			<input>
				<port id="0" precision="FP32">
					<dim>1</dim>
					<dim>161</dim>
					<dim>64</dim>
				</port>
				<port id="1" precision="I64">
					<dim>2</dim>
				</port>
			</input>
			<output>
				<port id="2" precision="FP32" names="/neural_model/fusion_blocks.0/Flatten_output_0">
					<dim>161</dim>
					<dim>64</dim>
				</port>
			</output>
		</layer>
		<layer id="47" name="/neural_model/fusion_blocks.0/Unsqueeze_1" type="Unsqueeze" version="opset1">
			<input>
				<port id="0" precision="FP32">
					<dim>161</dim>
					<dim>64</dim>
				</port>
				<port id="1" precision="I64">
					<dim>1</dim>
				</port>
			</input>
			<output>
				<port id="2" precision="FP32" names="/neural_model/fusion_blocks.0/Unsqueeze_1_output_0">
					<dim>161</dim>
					<dim>1</dim>
					<dim>64</dim>
				</port>
			</output>
		</layer>
		<layer id="48" name="/neural_model/fusion_blocks.0/Constant_4_output_0" type="Const" version="opset1">
			<data element_type="i64" shape="3" offset="229232" size="24" />
			<rt_info>
				<attribute name="precise" version="0" />
			</rt_info>
			<output>
				<port id="0" precision="I64" names="/neural_model/fusion_blocks.0/Constant_4_output_0">
					<dim>3</dim>
				</port>
			</output>
		</layer>
		<layer id="49" name="/neural_model/fusion_blocks.0/Tile_1" type="Tile" version="opset1">
			<input>
				<port id="0" precision="FP32">
					<dim>161</dim>
					<dim>1</dim>
					<dim>64</dim>
				</port>
				<port id="1" precision="I64">
					<dim>3</dim>
				</port>
			</input>
			<output>
				<port id="2" precision="FP32" names="/neural_model/fusion_blocks.0/Tile_1_output_0">
					<dim>161</dim>
					<dim>8</dim>
					<dim>64</dim>
				</port>
			</output>
		</layer>
		<layer id="50" name="Constant_5706_compressed" type="Const" version="opset1">
			<data element_type="f16" shape="1, 1, 64" offset="229256" size="128" />
			<output>
				<port id="0" precision="FP16">
					<dim>1</dim>
					<dim>1</dim>
					<dim>64</dim>
				</port>
			</output>
		</layer>
		<layer id="51" name="Constant_5706" type="Convert" version="opset1">
			<data destination_type="f32" />
			<rt_info>
				<attribute name="decompression" version="0" />
			</rt_info>
			<input>
				<port id="0" precision="FP16">
					<dim>1</dim>
					<dim>1</dim>
					<dim>64</dim>
				</port>
			</input>
			<output>
				<port id="1" precision="FP32">
					<dim>1</dim>
					<dim>1</dim>
					<dim>64</dim>
				</port>
			</output>
		</layer>
		<layer id="52" name="Constant_443" type="Const" version="opset1">
			<data element_type="i64" shape="3" offset="229384" size="24" />
			<output>
				<port id="0" precision="I64">
					<dim>3</dim>
				</port>
			</output>
		</layer>
		<layer id="53" name="/neural_model/fusion_blocks.0/attn/Transpose" type="Transpose" version="opset1">
			<input>
				<port id="0" precision="FP32">
					<dim>161</dim>
					<dim>8</dim>
					<dim>64</dim>
				</port>
				<port id="1" precision="I64">
					<dim>3</dim>
				</port>
			</input>
			<output>
				<port id="2" precision="FP32" names="/neural_model/fusion_blocks.0/attn/Transpose_output_0">
					<dim>8</dim>
					<dim>161</dim>
					<dim>64</dim>
				</port>
			</output>
		</layer>
		<layer id="54" name="Transpose_4835_compressed" type="Const" version="opset1">
			<data element_type="f16" shape="64, 64" offset="229408" size="8192" />
			<output>
				<port id="0" precision="FP16">
					<dim>64</dim>
					<dim>64</dim>
				</port>
			</output>
		</layer>
		<layer id="55" name="Transpose_4835" type="Convert" version="opset1">
			<data destination_type="f32" />
			<rt_info>
				<attribute name="decompression" version="0" />
			</rt_info>
			<input>
				<port id="0" precision="FP16">
					<dim>64</dim>
					<dim>64</dim>
				</port>
			</input>
			<output>
				<port id="1" precision="FP32">
					<dim>64</dim>
					<dim>64</dim>
				</port>
			</output>
		</layer>
		<layer id="56" name="/neural_model/fusion_blocks.0/attn/MatMul" type="MatMul" version="opset1">
			<data transpose_a="false" transpose_b="true" />
			<input>
				<port id="0" precision="FP32">
					<dim>8</dim>
					<dim>161</dim>
					<dim>64</dim>
				</port>
				<port id="1" precision="FP32">
					<dim>64</dim>
					<dim>64</dim>
				</port>
			</input>
			<output>
				<port id="2" precision="FP32" names="/neural_model/fusion_blocks.0/attn/MatMul_output_0">
					<dim>8</dim>
					<dim>161</dim>
					<dim>64</dim>
				</port>
			</output>
		</layer>
		<layer id="57" name="/neural_model/fusion_blocks.0/attn/Add" type="Add" version="opset1">
			<data auto_broadcast="numpy" />
			<input>
				<port id="0" precision="FP32">
					<dim>1</dim>
					<dim>1</dim>
					<dim>64</dim>
				</port>
				<port id="1" precision="FP32">
					<dim>8</dim>
					<dim>161</dim>
					<dim>64</dim>
				</port>
			</input>
			<output>
				<port id="2" precision="FP32" names="/neural_model/fusion_blocks.0/attn/Add_output_0">
					<dim>8</dim>
					<dim>161</dim>
					<dim>64</dim>
				</port>
			</output>
		</layer>
		<layer id="58" name="/neural_model/fusion_blocks.0/attn/Constant_11_output_0" type="Const" version="opset1">
			<data element_type="i64" shape="3" offset="237600" size="24" />
			<rt_info>
				<attribute name="precise" version="0" />
			</rt_info>
			<output>
				<port id="0" precision="I64" names="/neural_model/fusion_blocks.0/attn/Constant_11_output_0">
					<dim>3</dim>
				</port>
			</output>
		</layer>
		<layer id="59" name="/neural_model/fusion_blocks.0/attn/Reshape_3" type="Reshape" version="opset1">
			<data special_zero="true" />
			<input>
				<port id="0" precision="FP32">
					<dim>8</dim>
					<dim>161</dim>
					<dim>64</dim>
				</port>
				<port id="1" precision="I64">
					<dim>3</dim>
				</port>
			</input>
			<output>
				<port id="2" precision="FP32" names="/neural_model/fusion_blocks.0/attn/Reshape_3_output_0">
					<dim>8</dim>
					<dim>644</dim>
					<dim>16</dim>
				</port>
			</output>
		</layer>
		<layer id="60" name="Constant_461" type="Const" version="opset1">
			<data element_type="i64" shape="3" offset="229384" size="24" />
			<output>
				<port id="0" precision="I64">
					<dim>3</dim>
				</port>
			</output>
		</layer>
		<layer id="61" name="/neural_model/fusion_blocks.0/attn/Transpose_3" type="Transpose" version="opset1">
			<input>
				<port id="0" precision="FP32">
					<dim>8</dim>
					<dim>644</dim>
					<dim>16</dim>
				</port>
				<port id="1" precision="I64">
					<dim>3</dim>
				</port>
			</input>
			<output>
				<port id="2" precision="FP32" names="/neural_model/fusion_blocks.0/attn/Transpose_3_output_0">
					<dim>644</dim>
					<dim>8</dim>
					<dim>16</dim>
				</port>
			</output>
		</layer>
		<layer id="62" name="/neural_model/fusion_blocks.0/attn/Constant_14_output_0" type="Const" version="opset1">
			<data element_type="i64" shape="4" offset="237624" size="32" />
			<rt_info>
				<attribute name="precise" version="0" />
			</rt_info>
			<output>
				<port id="0" precision="I64" names="/neural_model/fusion_blocks.0/attn/Constant_14_output_0">
					<dim>4</dim>
				</port>
			</output>
		</layer>
		<layer id="63" name="/neural_model/fusion_blocks.0/attn/Reshape_6" type="Reshape" version="opset1">
			<data special_zero="true" />
			<input>
				<port id="0" precision="FP32">
					<dim>644</dim>
					<dim>8</dim>
					<dim>16</dim>
				</port>
				<port id="1" precision="I64">
					<dim>4</dim>
				</port>
			</input>
			<output>
				<port id="2" precision="FP32" names="/neural_model/fusion_blocks.0/attn/Reshape_6_output_0">
					<dim>161</dim>
					<dim>4</dim>
					<dim>8</dim>
					<dim>16</dim>
				</port>
			</output>
		</layer>
		<layer id="64" name="Constant_5707_compressed" type="Const" version="opset1">
			<data element_type="f16" shape="1, 1, 1, 1" offset="237656" size="2" />
			<output>
				<port id="0" precision="FP16">
					<dim>1</dim>
					<dim>1</dim>
					<dim>1</dim>
					<dim>1</dim>
				</port>
			</output>
		</layer>
		<layer id="65" name="Constant_5707" type="Convert" version="opset1">
			<data destination_type="f32" />
			<rt_info>
				<attribute name="decompression" version="0" />
			</rt_info>
			<input>
				<port id="0" precision="FP16">
					<dim>1</dim>
					<dim>1</dim>
					<dim>1</dim>
					<dim>1</dim>
				</port>
			</input>
			<output>
				<port id="1" precision="FP32">
					<dim>1</dim>
					<dim>1</dim>
					<dim>1</dim>
					<dim>1</dim>
				</port>
			</output>
		</layer>
		<layer id="66" name="/neural_model/fusion_blocks.0/attn/Mul" type="Multiply" version="opset1">
			<data auto_broadcast="numpy" />
			<input>
				<port id="0" precision="FP32">
					<dim>161</dim>
					<dim>4</dim>
					<dim>8</dim>
					<dim>16</dim>
				</port>
				<port id="1" precision="FP32">
					<dim>1</dim>
					<dim>1</dim>
					<dim>1</dim>
					<dim>1</dim>
				</port>
			</input>
			<output>
				<port id="2" precision="FP32" names="/neural_model/fusion_blocks.0/attn/Mul_output_0">
					<dim>161</dim>
					<dim>4</dim>
					<dim>8</dim>
					<dim>16</dim>
				</port>
			</output>
		</layer>
		<layer id="67" name="Constant_5708_compressed" type="Const" version="opset1">
			<data element_type="f16" shape="1, 1, 128" offset="237658" size="256" />
			<output>
				<port id="0" precision="FP16">
					<dim>1</dim>
					<dim>1</dim>
					<dim>128</dim>
				</port>
			</output>
		</layer>
		<layer id="68" name="Constant_5708" type="Convert" version="opset1">
			<data destination_type="f32" />
			<rt_info>
				<attribute name="decompression" version="0" />
			</rt_info>
			<input>
				<port id="0" precision="FP16">
					<dim>1</dim>
					<dim>1</dim>
					<dim>128</dim>
				</port>
			</input>
			<output>
				<port id="1" precision="FP32">
					<dim>1</dim>
					<dim>1</dim>
					<dim>128</dim>
				</port>
			</output>
		</layer>
		<layer id="69" name="Constant_392" type="Const" version="opset1">
			<data element_type="i64" shape="4" offset="226728" size="32" />
			<output>
				<port id="0" precision="I64">
					<dim>4</dim>
				</port>
			</output>
		</layer>
		<layer id="70" name="/neural_model/fusion_blocks.0/Transpose" type="Transpose" version="opset1">
			<input>
				<port id="0" precision="FP32">
					<dim>1</dim>
					<dim>64</dim>
					<dim>8</dim>
					<dim>161</dim>
				</port>
				<port id="1" precision="I64">
					<dim>4</dim>
				</port>
			</input>
			<output>
				<port id="2" precision="FP32" names="/neural_model/fusion_blocks.0/Transpose_output_0">
					<dim>1</dim>
					<dim>161</dim>
					<dim>8</dim>
					<dim>64</dim>
				</port>
			</output>
		</layer>
		<layer id="71" name="/neural_model/fusion_blocks.0/Constant_output_0" type="Const" version="opset1">
			<data element_type="i64" shape="3" offset="237914" size="24" />
			<rt_info>
				<attribute name="precise" version="0" />
			</rt_info>
			<output>
				<port id="0" precision="I64" names="/neural_model/fusion_blocks.0/Constant_output_0">
					<dim>3</dim>
				</port>
			</output>
		</layer>
		<layer id="72" name="/neural_model/fusion_blocks.0/Reshape" type="Reshape" version="opset1">
			<data special_zero="true" />
			<input>
				<port id="0" precision="FP32">
					<dim>1</dim>
					<dim>161</dim>
					<dim>8</dim>
					<dim>64</dim>
				</port>
				<port id="1" precision="I64">
					<dim>3</dim>
				</port>
			</input>
			<output>
				<port id="2" precision="FP32" names="/neural_model/fusion_blocks.0/Reshape_output_0">
					<dim>161</dim>
					<dim>8</dim>
					<dim>64</dim>
				</port>
			</output>
		</layer>
		<layer id="73" name="Constant_445" type="Const" version="opset1">
			<data element_type="i64" shape="3" offset="229384" size="24" />
			<output>
				<port id="0" precision="I64">
					<dim>3</dim>
				</port>
			</output>
		</layer>
		<layer id="74" name="/neural_model/fusion_blocks.0/attn/Transpose_1" type="Transpose" version="opset1">
			<input>
				<port id="0" precision="FP32">
					<dim>161</dim>
					<dim>8</dim>
					<dim>64</dim>
				</port>
				<port id="1" precision="I64">
					<dim>3</dim>
				</port>
			</input>
			<output>
				<port id="2" precision="FP32" names="/neural_model/fusion_blocks.0/attn/Transpose_1_output_0">
					<dim>8</dim>
					<dim>161</dim>
					<dim>64</dim>
				</port>
			</output>
		</layer>
		<layer id="75" name="Transpose_4844_compressed" type="Const" version="opset1">
			<data element_type="f16" shape="128, 64" offset="237938" size="16384" />
			<output>
				<port id="0" precision="FP16">
					<dim>128</dim>
					<dim>64</dim>
				</port>
			</output>
		</layer>
		<layer id="76" name="Transpose_4844" type="Convert" version="opset1">
			<data destination_type="f32" />
			<rt_info>
				<attribute name="decompression" version="0" />
			</rt_info>
			<input>
				<port id="0" precision="FP16">
					<dim>128</dim>
					<dim>64</dim>
				</port>
			</input>
			<output>
				<port id="1" precision="FP32">
					<dim>128</dim>
					<dim>64</dim>
				</port>
			</output>
		</layer>
		<layer id="77" name="/neural_model/fusion_blocks.0/attn/MatMul_1" type="MatMul" version="opset1">
			<data transpose_a="false" transpose_b="true" />
			<input>
				<port id="0" precision="FP32">
					<dim>8</dim>
					<dim>161</dim>
					<dim>64</dim>
				</port>
				<port id="1" precision="FP32">
					<dim>128</dim>
					<dim>64</dim>
				</port>
			</input>
			<output>
				<port id="2" precision="FP32" names="/neural_model/fusion_blocks.0/attn/MatMul_1_output_0">
					<dim>8</dim>
					<dim>161</dim>
					<dim>128</dim>
				</port>
			</output>
		</layer>
		<layer id="78" name="/neural_model/fusion_blocks.0/attn/Add_1" type="Add" version="opset1">
			<data auto_broadcast="numpy" />
			<input>
				<port id="0" precision="FP32">
					<dim>1</dim>
					<dim>1</dim>
					<dim>128</dim>
				</port>
				<port id="1" precision="FP32">
					<dim>8</dim>
					<dim>161</dim>
					<dim>128</dim>
				</port>
			</input>
			<output>
				<port id="2" precision="FP32" names="/neural_model/fusion_blocks.0/attn/Add_1_output_0">
					<dim>8</dim>
					<dim>161</dim>
					<dim>128</dim>
				</port>
			</output>
		</layer>
		<layer id="79" name="/neural_model/fusion_blocks.0/attn/Concat_output_0" type="Const" version="opset1">
			<data element_type="i64" shape="4" offset="254322" size="32" />
			<rt_info>
				<attribute name="precise" version="0" />
			</rt_info>
			<output>
				<port id="0" precision="I64" names="/neural_model/fusion_blocks.0/attn/Concat_output_0">
					<dim>4</dim>
				</port>
			</output>
		</layer>
		<layer id="80" name="/neural_model/fusion_blocks.0/attn/Reshape_2" type="Reshape" version="opset1">
			<data special_zero="true" />
			<input>
				<port id="0" precision="FP32">
					<dim>8</dim>
					<dim>161</dim>
					<dim>128</dim>
				</port>
				<port id="1" precision="I64">
					<dim>4</dim>
				</port>
			</input>
			<output>
				<port id="2" precision="FP32" names="/neural_model/fusion_blocks.0/attn/Reshape_2_output_0">
					<dim>8</dim>
					<dim>161</dim>
					<dim>2</dim>
					<dim>64</dim>
				</port>
			</output>
		</layer>
		<layer id="81" name="/neural_model/fusion_blocks.0/attn/Unsqueeze" type="Unsqueeze" version="opset1">
			<input>
				<port id="0" precision="FP32">
					<dim>8</dim>
					<dim>161</dim>
					<dim>2</dim>
					<dim>64</dim>
				</port>
				<port id="1" precision="I64">
					<dim>1</dim>
				</port>
			</input>
			<output>
				<port id="2" precision="FP32" names="/neural_model/fusion_blocks.0/attn/Unsqueeze_output_0">
					<dim>1</dim>
					<dim>8</dim>
					<dim>161</dim>
					<dim>2</dim>
					<dim>64</dim>
				</port>
			</output>
		</layer>
		<layer id="82" name="Constant_4689" type="Const" version="opset1">
			<data element_type="i64" shape="1" offset="226696" size="8" />
			<output>
				<port id="0" precision="I64">
					<dim>1</dim>
				</port>
			</output>
		</layer>
		<layer id="83" name="Squeeze_4690" type="Squeeze" version="opset1">
			<input>
				<port id="0" precision="FP32">
					<dim>1</dim>
					<dim>8</dim>
					<dim>161</dim>
					<dim>2</dim>
					<dim>64</dim>
				</port>
				<port id="1" precision="I64">
					<dim>1</dim>
				</port>
			</input>
			<output>
				<port id="2" precision="FP32">
					<dim>8</dim>
					<dim>161</dim>
					<dim>2</dim>
					<dim>64</dim>
				</port>
			</output>
		</layer>
		<layer id="84" name="Constant_4691" type="Const" version="opset1">
			<data element_type="i64" shape="4" offset="254354" size="32" />
			<output>
				<port id="0" precision="I64">
					<dim>4</dim>
				</port>
			</output>
		</layer>
		<layer id="85" name="/neural_model/fusion_blocks.0/attn/Squeeze" type="Transpose" version="opset1">
			<input>
				<port id="0" precision="FP32">
					<dim>8</dim>
					<dim>161</dim>
					<dim>2</dim>
					<dim>64</dim>
				</port>
				<port id="1" precision="I64">
					<dim>4</dim>
				</port>
			</input>
			<output>
				<port id="2" precision="FP32" names="/neural_model/fusion_blocks.0/attn/Squeeze_output_0">
					<dim>2</dim>
					<dim>8</dim>
					<dim>161</dim>
					<dim>64</dim>
				</port>
			</output>
		</layer>
		<layer id="86" name="/Constant_2_output_0" type="Const" version="opset1">
			<data element_type="i64" shape="" offset="226696" size="8" />
			<output>
				<port id="0" precision="I64" names="/Constant_2_output_0" />
			</output>
		</layer>
		<layer id="87" name="Constant_456" type="Const" version="opset1">
			<data element_type="i64" shape="" offset="226696" size="8" />
			<output>
				<port id="0" precision="I64" />
			</output>
		</layer>
		<layer id="88" name="/neural_model/fusion_blocks.0/attn/Gather" type="Gather" version="opset8">
			<data batch_dims="0" />
			<input>
				<port id="0" precision="FP32">
					<dim>2</dim>
					<dim>8</dim>
					<dim>161</dim>
					<dim>64</dim>
				</port>
				<port id="1" precision="I64" />
				<port id="2" precision="I64" />
			</input>
			<output>
				<port id="3" precision="FP32" names="/neural_model/fusion_blocks.0/attn/Gather_output_0">
					<dim>8</dim>
					<dim>161</dim>
					<dim>64</dim>
				</port>
			</output>
		</layer>
		<layer id="89" name="/neural_model/fusion_blocks.0/attn/Reshape_4" type="Reshape" version="opset1">
			<data special_zero="true" />
			<input>
				<port id="0" precision="FP32">
					<dim>8</dim>
					<dim>161</dim>
					<dim>64</dim>
				</port>
				<port id="1" precision="I64">
					<dim>3</dim>
				</port>
			</input>
			<output>
				<port id="2" precision="FP32" names="/neural_model/fusion_blocks.0/attn/Reshape_4_output_0">
					<dim>8</dim>
					<dim>644</dim>
					<dim>16</dim>
				</port>
			</output>
		</layer>
		<layer id="90" name="Constant_464" type="Const" version="opset1">
			<data element_type="i64" shape="3" offset="229384" size="24" />
			<output>
				<port id="0" precision="I64">
					<dim>3</dim>
				</port>
			</output>
		</layer>
		<layer id="91" name="/neural_model/fusion_blocks.0/attn/Transpose_4" type="Transpose" version="opset1">
			<input>
				<port id="0" precision="FP32">
					<dim>8</dim>
					<dim>644</dim>
					<dim>16</dim>
				</port>
				<port id="1" precision="I64">
					<dim>3</dim>
				</port>
			</input>
			<output>
				<port id="2" precision="FP32" names="/neural_model/fusion_blocks.0/attn/Transpose_4_output_0">
					<dim>644</dim>
					<dim>8</dim>
					<dim>16</dim>
				</port>
			</output>
		</layer>
		<layer id="92" name="/neural_model/fusion_blocks.0/attn/Reshape_7" type="Reshape" version="opset1">
			<data special_zero="true" />
			<input>
				<port id="0" precision="FP32">
					<dim>644</dim>
					<dim>8</dim>
					<dim>16</dim>
				</port>
				<port id="1" precision="I64">
					<dim>4</dim>
				</port>
			</input>
			<output>
				<port id="2" precision="FP32" names="/neural_model/fusion_blocks.0/attn/Reshape_7_output_0">
					<dim>161</dim>
					<dim>4</dim>
					<dim>8</dim>
					<dim>16</dim>
				</port>
			</output>
		</layer>
		<layer id="93" name="Constant_472" type="Const" version="opset1">
			<data element_type="i64" shape="4" offset="254386" size="32" />
			<output>
				<port id="0" precision="I64">
					<dim>4</dim>
				</port>
			</output>
		</layer>
		<layer id="94" name="/neural_model/fusion_blocks.0/attn/Transpose_6" type="Transpose" version="opset1">
			<input>
				<port id="0" precision="FP32">
					<dim>161</dim>
					<dim>4</dim>
					<dim>8</dim>
					<dim>16</dim>
				</port>
				<port id="1" precision="I64">
					<dim>4</dim>
				</port>
			</input>
			<output>
				<port id="2" precision="FP32" names="/neural_model/fusion_blocks.0/attn/Transpose_6_output_0">
					<dim>161</dim>
					<dim>4</dim>
					<dim>16</dim>
					<dim>8</dim>
				</port>
			</output>
		</layer>
		<layer id="95" name="Constant_5709_compressed" type="Const" version="opset1">
			<data element_type="f16" shape="1, 1, 1, 1" offset="237656" size="2" />
			<output>
				<port id="0" precision="FP16">
					<dim>1</dim>
					<dim>1</dim>
					<dim>1</dim>
					<dim>1</dim>
				</port>
			</output>
		</layer>
		<layer id="96" name="Constant_5709" type="Convert" version="opset1">
			<data destination_type="f32" />
			<rt_info>
				<attribute name="decompression" version="0" />
			</rt_info>
			<input>
				<port id="0" precision="FP16">
					<dim>1</dim>
					<dim>1</dim>
					<dim>1</dim>
					<dim>1</dim>
				</port>
			</input>
			<output>
				<port id="1" precision="FP32">
					<dim>1</dim>
					<dim>1</dim>
					<dim>1</dim>
					<dim>1</dim>
				</port>
			</output>
		</layer>
		<layer id="97" name="/neural_model/fusion_blocks.0/attn/Mul_1" type="Multiply" version="opset1">
			<data auto_broadcast="numpy" />
			<input>
				<port id="0" precision="FP32">
					<dim>161</dim>
					<dim>4</dim>
					<dim>16</dim>
					<dim>8</dim>
				</port>
				<port id="1" precision="FP32">
					<dim>1</dim>
					<dim>1</dim>
					<dim>1</dim>
					<dim>1</dim>
				</port>
			</input>
			<output>
				<port id="2" precision="FP32" names="/neural_model/fusion_blocks.0/attn/Mul_1_output_0">
					<dim>161</dim>
					<dim>4</dim>
					<dim>16</dim>
					<dim>8</dim>
				</port>
			</output>
		</layer>
		<layer id="98" name="/neural_model/fusion_blocks.0/attn/MatMul_2" type="MatMul" version="opset1">
			<data transpose_a="false" transpose_b="false" />
			<input>
				<port id="0" precision="FP32">
					<dim>161</dim>
					<dim>4</dim>
					<dim>8</dim>
					<dim>16</dim>
				</port>
				<port id="1" precision="FP32">
					<dim>161</dim>
					<dim>4</dim>
					<dim>16</dim>
					<dim>8</dim>
				</port>
			</input>
			<output>
				<port id="2" precision="FP32" names="/neural_model/fusion_blocks.0/attn/MatMul_2_output_0">
					<dim>161</dim>
					<dim>4</dim>
					<dim>8</dim>
					<dim>8</dim>
				</port>
			</output>
		</layer>
		<layer id="99" name="/neural_model/fusion_blocks.0/attn/Softmax" type="SoftMax" version="opset8">
			<data axis="-1" />
			<input>
				<port id="0" precision="FP32">
					<dim>161</dim>
					<dim>4</dim>
					<dim>8</dim>
					<dim>8</dim>
				</port>
			</input>
			<output>
				<port id="1" precision="FP32" names="/neural_model/fusion_blocks.0/attn/Softmax_output_0">
					<dim>161</dim>
					<dim>4</dim>
					<dim>8</dim>
					<dim>8</dim>
				</port>
			</output>
		</layer>
		<layer id="100" name="/Constant_output_0" type="Const" version="opset1">
			<data element_type="i64" shape="" offset="20608" size="8" />
			<output>
				<port id="0" precision="I64" names="/Constant_output_0" />
			</output>
		</layer>
		<layer id="101" name="Constant_458" type="Const" version="opset1">
			<data element_type="i64" shape="" offset="226696" size="8" />
			<output>
				<port id="0" precision="I64" />
			</output>
		</layer>
		<layer id="102" name="/neural_model/fusion_blocks.0/attn/Gather_1" type="Gather" version="opset8">
			<data batch_dims="0" />
			<input>
				<port id="0" precision="FP32">
					<dim>2</dim>
					<dim>8</dim>
					<dim>161</dim>
					<dim>64</dim>
				</port>
				<port id="1" precision="I64" />
				<port id="2" precision="I64" />
			</input>
			<output>
				<port id="3" precision="FP32" names="/neural_model/fusion_blocks.0/attn/Gather_1_output_0">
					<dim>8</dim>
					<dim>161</dim>
					<dim>64</dim>
				</port>
			</output>
		</layer>
		<layer id="103" name="/neural_model/fusion_blocks.0/attn/Reshape_5" type="Reshape" version="opset1">
			<data special_zero="true" />
			<input>
				<port id="0" precision="FP32">
					<dim>8</dim>
					<dim>161</dim>
					<dim>64</dim>
				</port>
				<port id="1" precision="I64">
					<dim>3</dim>
				</port>
			</input>
			<output>
				<port id="2" precision="FP32" names="/neural_model/fusion_blocks.0/attn/Reshape_5_output_0">
					<dim>8</dim>
					<dim>644</dim>
					<dim>16</dim>
				</port>
			</output>
		</layer>
		<layer id="104" name="Constant_467" type="Const" version="opset1">
			<data element_type="i64" shape="3" offset="229384" size="24" />
			<output>
				<port id="0" precision="I64">
					<dim>3</dim>
				</port>
			</output>
		</layer>
		<layer id="105" name="/neural_model/fusion_blocks.0/attn/Transpose_5" type="Transpose" version="opset1">
			<input>
				<port id="0" precision="FP32">
					<dim>8</dim>
					<dim>644</dim>
					<dim>16</dim>
				</port>
				<port id="1" precision="I64">
					<dim>3</dim>
				</port>
			</input>
			<output>
				<port id="2" precision="FP32" names="/neural_model/fusion_blocks.0/attn/Transpose_5_output_0">
					<dim>644</dim>
					<dim>8</dim>
					<dim>16</dim>
				</port>
			</output>
		</layer>
		<layer id="106" name="/neural_model/fusion_blocks.0/attn/Reshape_8" type="Reshape" version="opset1">
			<data special_zero="true" />
			<input>
				<port id="0" precision="FP32">
					<dim>644</dim>
					<dim>8</dim>
					<dim>16</dim>
				</port>
				<port id="1" precision="I64">
					<dim>4</dim>
				</port>
			</input>
			<output>
				<port id="2" precision="FP32" names="/neural_model/fusion_blocks.0/attn/Reshape_8_output_0">
					<dim>161</dim>
					<dim>4</dim>
					<dim>8</dim>
					<dim>16</dim>
				</port>
			</output>
		</layer>
		<layer id="107" name="/neural_model/fusion_blocks.0/attn/MatMul_3" type="MatMul" version="opset1">
			<data transpose_a="false" transpose_b="false" />
			<input>
				<port id="0" precision="FP32">
					<dim>161</dim>
					<dim>4</dim>
					<dim>8</dim>
					<dim>8</dim>
				</port>
				<port id="1" precision="FP32">
					<dim>161</dim>
					<dim>4</dim>
					<dim>8</dim>
					<dim>16</dim>
				</port>
			</input>
			<output>
				<port id="2" precision="FP32" names="/neural_model/fusion_blocks.0/attn/MatMul_3_output_0">
					<dim>161</dim>
					<dim>4</dim>
					<dim>8</dim>
					<dim>16</dim>
				</port>
			</output>
		</layer>
		<layer id="108" name="Constant_479" type="Const" version="opset1">
			<data element_type="i64" shape="4" offset="254354" size="32" />
			<output>
				<port id="0" precision="I64">
					<dim>4</dim>
				</port>
			</output>
		</layer>
		<layer id="109" name="/neural_model/fusion_blocks.0/attn/Transpose_7" type="Transpose" version="opset1">
			<input>
				<port id="0" precision="FP32">
					<dim>161</dim>
					<dim>4</dim>
					<dim>8</dim>
					<dim>16</dim>
				</port>
				<port id="1" precision="I64">
					<dim>4</dim>
				</port>
			</input>
			<output>
				<port id="2" precision="FP32" names="/neural_model/fusion_blocks.0/attn/Transpose_7_output_0">
					<dim>8</dim>
					<dim>161</dim>
					<dim>4</dim>
					<dim>16</dim>
				</port>
			</output>
		</layer>
		<layer id="110" name="Concat_2540" type="Const" version="opset1">
			<data element_type="i64" shape="2" offset="254418" size="16" />
			<rt_info>
				<attribute name="precise" version="0" />
			</rt_info>
			<output>
				<port id="0" precision="I64">
					<dim>2</dim>
				</port>
			</output>
		</layer>
		<layer id="111" name="/neural_model/fusion_blocks.0/attn/Reshape_9" type="Reshape" version="opset1">
			<data special_zero="true" />
			<input>
				<port id="0" precision="FP32">
					<dim>8</dim>
					<dim>161</dim>
					<dim>4</dim>
					<dim>16</dim>
				</port>
				<port id="1" precision="I64">
					<dim>2</dim>
				</port>
			</input>
			<output>
				<port id="2" precision="FP32" names="/neural_model/fusion_blocks.0/attn/Reshape_9_output_0">
					<dim>1288</dim>
					<dim>64</dim>
				</port>
			</output>
		</layer>
		<layer id="112" name="neural_model.fusion_blocks.0.attn.out_proj.weight_compressed" type="Const" version="opset1">
			<data element_type="f16" shape="64, 64" offset="254434" size="8192" />
			<output>
				<port id="0" precision="FP16" names="neural_model.fusion_blocks.0.attn.out_proj.weight">
					<dim>64</dim>
					<dim>64</dim>
				</port>
			</output>
		</layer>
		<layer id="113" name="neural_model.fusion_blocks.0.attn.out_proj.weight" type="Convert" version="opset1">
			<data destination_type="f32" />
			<rt_info>
				<attribute name="decompression" version="0" />
			</rt_info>
			<input>
				<port id="0" precision="FP16">
					<dim>64</dim>
					<dim>64</dim>
				</port>
			</input>
			<output>
				<port id="1" precision="FP32">
					<dim>64</dim>
					<dim>64</dim>
				</port>
			</output>
		</layer>
		<layer id="114" name="/neural_model/fusion_blocks.0/attn/Gemm/WithoutBiases" type="MatMul" version="opset1">
			<data transpose_a="false" transpose_b="true" />
			<input>
				<port id="0" precision="FP32">
					<dim>1288</dim>
					<dim>64</dim>
				</port>
				<port id="1" precision="FP32">
					<dim>64</dim>
					<dim>64</dim>
				</port>
			</input>
			<output>
				<port id="2" precision="FP32">
					<dim>1288</dim>
					<dim>64</dim>
				</port>
			</output>
		</layer>
		<layer id="115" name="Constant_5710_compressed" type="Const" version="opset1">
			<data element_type="f16" shape="1, 64" offset="262626" size="128" />
			<output>
				<port id="0" precision="FP16">
					<dim>1</dim>
					<dim>64</dim>
				</port>
			</output>
		</layer>
		<layer id="116" name="Constant_5710" type="Convert" version="opset1">
			<data destination_type="f32" />
			<rt_info>
				<attribute name="decompression" version="0" />
			</rt_info>
			<input>
				<port id="0" precision="FP16">
					<dim>1</dim>
					<dim>64</dim>
				</port>
			</input>
			<output>
				<port id="1" precision="FP32">
					<dim>1</dim>
					<dim>64</dim>
				</port>
			</output>
		</layer>
		<layer id="117" name="/neural_model/fusion_blocks.0/attn/Gemm" type="Add" version="opset1">
			<data auto_broadcast="numpy" />
			<input>
				<port id="0" precision="FP32">
					<dim>1288</dim>
					<dim>64</dim>
				</port>
				<port id="1" precision="FP32">
					<dim>1</dim>
					<dim>64</dim>
				</port>
			</input>
			<output>
				<port id="2" precision="FP32" names="/neural_model/fusion_blocks.0/attn/Gemm_output_0">
					<dim>1288</dim>
					<dim>64</dim>
				</port>
			</output>
		</layer>
		<layer id="118" name="/neural_model/fusion_blocks.0/attn/Constant_21_output_0" type="Const" version="opset1">
			<data element_type="i64" shape="3" offset="262754" size="24" />
			<rt_info>
				<attribute name="precise" version="0" />
			</rt_info>
			<output>
				<port id="0" precision="I64" names="/neural_model/fusion_blocks.0/attn/Constant_21_output_0">
					<dim>3</dim>
				</port>
			</output>
		</layer>
		<layer id="119" name="/neural_model/fusion_blocks.0/attn/Reshape_10" type="Reshape" version="opset1">
			<data special_zero="true" />
			<input>
				<port id="0" precision="FP32">
					<dim>1288</dim>
					<dim>64</dim>
				</port>
				<port id="1" precision="I64">
					<dim>3</dim>
				</port>
			</input>
			<output>
				<port id="2" precision="FP32" names="/neural_model/fusion_blocks.0/attn/Reshape_10_output_0">
					<dim>8</dim>
					<dim>161</dim>
					<dim>64</dim>
				</port>
			</output>
		</layer>
		<layer id="120" name="Constant_489" type="Const" version="opset1">
			<data element_type="i64" shape="3" offset="229384" size="24" />
			<output>
				<port id="0" precision="I64">
					<dim>3</dim>
				</port>
			</output>
		</layer>
		<layer id="121" name="/neural_model/fusion_blocks.0/attn/Transpose_8" type="Transpose" version="opset1">
			<input>
				<port id="0" precision="FP32">
					<dim>8</dim>
					<dim>161</dim>
					<dim>64</dim>
				</port>
				<port id="1" precision="I64">
					<dim>3</dim>
				</port>
			</input>
			<output>
				<port id="2" precision="FP32" names="/neural_model/fusion_blocks.0/attn/Transpose_8_output_0">
					<dim>161</dim>
					<dim>8</dim>
					<dim>64</dim>
				</port>
			</output>
		</layer>
		<layer id="122" name="/neural_model/fusion_blocks.0/Add" type="Add" version="opset1">
			<data auto_broadcast="numpy" />
			<input>
				<port id="0" precision="FP32">
					<dim>161</dim>
					<dim>8</dim>
					<dim>64</dim>
				</port>
				<port id="1" precision="FP32">
					<dim>161</dim>
					<dim>8</dim>
					<dim>64</dim>
				</port>
			</input>
			<output>
				<port id="2" precision="FP32" names="/neural_model/fusion_blocks.0/Add_output_0">
					<dim>161</dim>
					<dim>8</dim>
					<dim>64</dim>
				</port>
			</output>
		</layer>
		<layer id="123" name="/neural_model/fusion_blocks.0/Constant_6_output_0" type="Const" version="opset1">
			<data element_type="i64" shape="4" offset="262778" size="32" />
			<rt_info>
				<attribute name="precise" version="0" />
			</rt_info>
			<output>
				<port id="0" precision="I64" names="/neural_model/fusion_blocks.0/Constant_6_output_0">
					<dim>4</dim>
				</port>
			</output>
		</layer>
		<layer id="124" name="/neural_model/fusion_blocks.0/Reshape_1" type="Reshape" version="opset1">
			<data special_zero="true" />
			<input>
				<port id="0" precision="FP32">
					<dim>161</dim>
					<dim>8</dim>
					<dim>64</dim>
				</port>
				<port id="1" precision="I64">
					<dim>4</dim>
				</port>
			</input>
			<output>
				<port id="2" precision="FP32" names="/neural_model/fusion_blocks.0/Reshape_1_output_0">
					<dim>1</dim>
					<dim>161</dim>
					<dim>8</dim>
					<dim>64</dim>
				</port>
			</output>
		</layer>
		<layer id="125" name="Constant_493" type="Const" version="opset1">
			<data element_type="i64" shape="4" offset="226728" size="32" />
			<output>
				<port id="0" precision="I64">
					<dim>4</dim>
				</port>
			</output>
		</layer>
		<layer id="126" name="/neural_model/fusion_blocks.0/Transpose_1" type="Transpose" version="opset1">
			<input>
				<port id="0" precision="FP32">
					<dim>1</dim>
					<dim>161</dim>
					<dim>8</dim>
					<dim>64</dim>
				</port>
				<port id="1" precision="I64">
					<dim>4</dim>
				</port>
			</input>
			<output>
				<port id="2" precision="FP32" names="/neural_model/fusion_blocks.0/Transpose_1_output_0">
					<dim>1</dim>
					<dim>64</dim>
					<dim>8</dim>
					<dim>161</dim>
				</port>
			</output>
		</layer>
		<layer id="127" name="/neural_model/fusion_blocks.0/Concat" type="Concat" version="opset1">
			<data axis="1" />
			<input>
				<port id="0" precision="FP32">
					<dim>1</dim>
					<dim>64</dim>
					<dim>8</dim>
					<dim>161</dim>
				</port>
				<port id="1" precision="FP32">
					<dim>1</dim>
					<dim>64</dim>
					<dim>8</dim>
					<dim>161</dim>
				</port>
			</input>
			<output>
				<port id="2" precision="FP32" names="/neural_model/fusion_blocks.0/Concat_output_0">
					<dim>1</dim>
					<dim>128</dim>
					<dim>8</dim>
					<dim>161</dim>
				</port>
			</output>
		</layer>
		<layer id="128" name="neural_model.fusion_blocks.0.fusion.weight_compressed" type="Const" version="opset1">
			<data element_type="f16" shape="64, 128, 1, 1" offset="262810" size="16384" />
			<output>
				<port id="0" precision="FP16" names="neural_model.fusion_blocks.0.fusion.weight">
					<dim>64</dim>
					<dim>128</dim>
					<dim>1</dim>
					<dim>1</dim>
				</port>
			</output>
		</layer>
		<layer id="129" name="neural_model.fusion_blocks.0.fusion.weight" type="Convert" version="opset1">
			<data destination_type="f32" />
			<rt_info>
				<attribute name="decompression" version="0" />
			</rt_info>
			<input>
				<port id="0" precision="FP16">
					<dim>64</dim>
					<dim>128</dim>
					<dim>1</dim>
					<dim>1</dim>
				</port>
			</input>
			<output>
				<port id="1" precision="FP32">
					<dim>64</dim>
					<dim>128</dim>
					<dim>1</dim>
					<dim>1</dim>
				</port>
			</output>
		</layer>
		<layer id="130" name="/neural_model/fusion_blocks.0/fusion/Conv/WithoutBiases" type="Convolution" version="opset1">
			<data strides="1, 1" dilations="1, 1" pads_begin="0, 0" pads_end="0, 0" auto_pad="explicit" />
			<input>
				<port id="0" precision="FP32">
					<dim>1</dim>
					<dim>128</dim>
					<dim>8</dim>
					<dim>161</dim>
				</port>
				<port id="1" precision="FP32">
					<dim>64</dim>
					<dim>128</dim>
					<dim>1</dim>
					<dim>1</dim>
				</port>
			</input>
			<output>
				<port id="2" precision="FP32">
					<dim>1</dim>
					<dim>64</dim>
					<dim>8</dim>
					<dim>161</dim>
				</port>
			</output>
		</layer>
		<layer id="131" name="Reshape_507_compressed" type="Const" version="opset1">
			<data element_type="f16" shape="1, 64, 1, 1" offset="279194" size="128" />
			<output>
				<port id="0" precision="FP16">
					<dim>1</dim>
					<dim>64</dim>
					<dim>1</dim>
					<dim>1</dim>
				</port>
			</output>
		</layer>
		<layer id="132" name="Reshape_507" type="Convert" version="opset1">
			<data destination_type="f32" />
			<rt_info>
				<attribute name="decompression" version="0" />
			</rt_info>
			<input>
				<port id="0" precision="FP16">
					<dim>1</dim>
					<dim>64</dim>
					<dim>1</dim>
					<dim>1</dim>
				</port>
			</input>
			<output>
				<port id="1" precision="FP32">
					<dim>1</dim>
					<dim>64</dim>
					<dim>1</dim>
					<dim>1</dim>
				</port>
			</output>
		</layer>
		<layer id="133" name="/neural_model/fusion_blocks.0/fusion/Conv" type="Add" version="opset1">
			<data auto_broadcast="numpy" />
			<input>
				<port id="0" precision="FP32">
					<dim>1</dim>
					<dim>64</dim>
					<dim>8</dim>
					<dim>161</dim>
				</port>
				<port id="1" precision="FP32">
					<dim>1</dim>
					<dim>64</dim>
					<dim>1</dim>
					<dim>1</dim>
				</port>
			</input>
			<output>
				<port id="2" precision="FP32" names="/neural_model/fusion_blocks.0/fusion/Conv_output_0">
					<dim>1</dim>
					<dim>64</dim>
					<dim>8</dim>
					<dim>161</dim>
				</port>
			</output>
		</layer>
		<layer id="134" name="Constant_517" type="Const" version="opset1">
			<data element_type="i64" shape="4" offset="279322" size="32" />
			<rt_info>
				<attribute name="precise" version="0" />
			</rt_info>
			<output>
				<port id="0" precision="I64">
					<dim>4</dim>
				</port>
			</output>
		</layer>
		<layer id="135" name="Constant_518" type="Const" version="opset1">
			<data element_type="i64" shape="4" offset="279354" size="32" />
			<rt_info>
				<attribute name="precise" version="0" />
			</rt_info>
			<output>
				<port id="0" precision="I64">
					<dim>4</dim>
				</port>
			</output>
		</layer>
		<layer id="136" name="Constant_516_compressed" type="Const" version="opset1">
			<data element_type="f16" shape="" offset="279386" size="2" />
			<output>
				<port id="0" precision="FP16" />
			</output>
		</layer>
		<layer id="137" name="Constant_516" type="Convert" version="opset1">
			<data destination_type="f32" />
			<rt_info>
				<attribute name="decompression" version="0" />
			</rt_info>
			<input>
				<port id="0" precision="FP16" />
			</input>
			<output>
				<port id="1" precision="FP32" />
			</output>
		</layer>
		<layer id="138" name="/neural_model/separate_blocks.0/Pad" type="Pad" version="opset12">
			<data pad_mode="constant" />
			<input>
				<port id="0" precision="FP32">
					<dim>1</dim>
					<dim>64</dim>
					<dim>8</dim>
					<dim>161</dim>
				</port>
				<port id="1" precision="I64">
					<dim>4</dim>
				</port>
				<port id="2" precision="I64">
					<dim>4</dim>
				</port>
				<port id="3" precision="FP32" />
			</input>
			<output>
				<port id="4" precision="FP32" names="/neural_model/separate_blocks.0/Pad_output_0">
					<dim>1</dim>
					<dim>64</dim>
					<dim>8</dim>
					<dim>162</dim>
				</port>
			</output>
		</layer>
		<layer id="139" name="Constant_520" type="Const" version="opset1">
			<data element_type="i64" shape="1" offset="20608" size="8" />
			<output>
				<port id="0" precision="I64">
					<dim>1</dim>
				</port>
			</output>
		</layer>
		<layer id="140" name="/neural_model/separate_blocks.0/intra_norm/ReduceMean" type="ReduceMean" version="opset1">
			<data keep_dims="true" />
			<input>
				<port id="0" precision="FP32">
					<dim>1</dim>
					<dim>64</dim>
					<dim>8</dim>
					<dim>162</dim>
				</port>
				<port id="1" precision="I64">
					<dim>1</dim>
				</port>
			</input>
			<output>
				<port id="2" precision="FP32" names="/neural_model/separate_blocks.0/intra_norm/ReduceMean_output_0">
					<dim>1</dim>
					<dim>1</dim>
					<dim>8</dim>
					<dim>162</dim>
				</port>
			</output>
		</layer>
		<layer id="141" name="/neural_model/separate_blocks.0/intra_norm/Sub" type="Subtract" version="opset1">
			<data auto_broadcast="numpy" />
			<input>
				<port id="0" precision="FP32">
					<dim>1</dim>
					<dim>64</dim>
					<dim>8</dim>
					<dim>162</dim>
				</port>
				<port id="1" precision="FP32">
					<dim>1</dim>
					<dim>1</dim>
					<dim>8</dim>
					<dim>162</dim>
				</port>
			</input>
			<output>
				<port id="2" precision="FP32" names="/neural_model/separate_blocks.0/intra_norm/Sub_output_0">
					<dim>1</dim>
					<dim>64</dim>
					<dim>8</dim>
					<dim>162</dim>
				</port>
			</output>
		</layer>
		<layer id="142" name="/neural_model/separate_blocks.0/intra_norm/Mul" type="Multiply" version="opset1">
			<data auto_broadcast="numpy" />
			<input>
				<port id="0" precision="FP32">
					<dim>1</dim>
					<dim>64</dim>
					<dim>8</dim>
					<dim>162</dim>
				</port>
				<port id="1" precision="FP32">
					<dim>1</dim>
					<dim>64</dim>
					<dim>8</dim>
					<dim>162</dim>
				</port>
			</input>
			<output>
				<port id="2" precision="FP32" names="/neural_model/separate_blocks.0/intra_norm/Mul_output_0">
					<dim>1</dim>
					<dim>64</dim>
					<dim>8</dim>
					<dim>162</dim>
				</port>
			</output>
		</layer>
		<layer id="143" name="Constant_524" type="Const" version="opset1">
			<data element_type="i64" shape="1" offset="20608" size="8" />
			<output>
				<port id="0" precision="I64">
					<dim>1</dim>
				</port>
			</output>
		</layer>
		<layer id="144" name="/neural_model/separate_blocks.0/intra_norm/ReduceMean_2" type="ReduceMean" version="opset1">
			<data keep_dims="true" />
			<input>
				<port id="0" precision="FP32">
					<dim>1</dim>
					<dim>64</dim>
					<dim>8</dim>
					<dim>162</dim>
				</port>
				<port id="1" precision="I64">
					<dim>1</dim>
				</port>
			</input>
			<output>
				<port id="2" precision="FP32" names="/neural_model/separate_blocks.0/intra_norm/ReduceMean_2_output_0">
					<dim>1</dim>
					<dim>1</dim>
					<dim>8</dim>
					<dim>162</dim>
				</port>
			</output>
		</layer>
		<layer id="145" name="Constant_5711_compressed" type="Const" version="opset1">
			<data element_type="f16" shape="1, 1, 1, 1" offset="279388" size="2" />
			<output>
				<port id="0" precision="FP16">
					<dim>1</dim>
					<dim>1</dim>
					<dim>1</dim>
					<dim>1</dim>
				</port>
			</output>
		</layer>
		<layer id="146" name="Constant_5711" type="Convert" version="opset1">
			<data destination_type="f32" />
			<rt_info>
				<attribute name="decompression" version="0" />
			</rt_info>
			<input>
				<port id="0" precision="FP16">
					<dim>1</dim>
					<dim>1</dim>
					<dim>1</dim>
					<dim>1</dim>
				</port>
			</input>
			<output>
				<port id="1" precision="FP32">
					<dim>1</dim>
					<dim>1</dim>
					<dim>1</dim>
					<dim>1</dim>
				</port>
			</output>
		</layer>
		<layer id="147" name="/neural_model/separate_blocks.0/intra_norm/Add" type="Add" version="opset1">
			<data auto_broadcast="numpy" />
			<input>
				<port id="0" precision="FP32">
					<dim>1</dim>
					<dim>1</dim>
					<dim>8</dim>
					<dim>162</dim>
				</port>
				<port id="1" precision="FP32">
					<dim>1</dim>
					<dim>1</dim>
					<dim>1</dim>
					<dim>1</dim>
				</port>
			</input>
			<output>
				<port id="2" precision="FP32" names="/neural_model/separate_blocks.0/intra_norm/Add_output_0">
					<dim>1</dim>
					<dim>1</dim>
					<dim>8</dim>
					<dim>162</dim>
				</port>
			</output>
		</layer>
		<layer id="148" name="/neural_model/separate_blocks.0/intra_norm/Sqrt" type="Sqrt" version="opset1">
			<input>
				<port id="0" precision="FP32">
					<dim>1</dim>
					<dim>1</dim>
					<dim>8</dim>
					<dim>162</dim>
				</port>
			</input>
			<output>
				<port id="1" precision="FP32" names="/neural_model/separate_blocks.0/intra_norm/Sqrt_output_0">
					<dim>1</dim>
					<dim>1</dim>
					<dim>8</dim>
					<dim>162</dim>
				</port>
			</output>
		</layer>
		<layer id="149" name="Constant_5712_compressed" type="Const" version="opset1">
			<data element_type="f16" shape="1, 1, 1, 1" offset="279388" size="2" />
			<output>
				<port id="0" precision="FP16">
					<dim>1</dim>
					<dim>1</dim>
					<dim>1</dim>
					<dim>1</dim>
				</port>
			</output>
		</layer>
		<layer id="150" name="Constant_5712" type="Convert" version="opset1">
			<data destination_type="f32" />
			<rt_info>
				<attribute name="decompression" version="0" />
			</rt_info>
			<input>
				<port id="0" precision="FP16">
					<dim>1</dim>
					<dim>1</dim>
					<dim>1</dim>
					<dim>1</dim>
				</port>
			</input>
			<output>
				<port id="1" precision="FP32">
					<dim>1</dim>
					<dim>1</dim>
					<dim>1</dim>
					<dim>1</dim>
				</port>
			</output>
		</layer>
		<layer id="151" name="/neural_model/separate_blocks.0/intra_norm/Add_1" type="Add" version="opset1">
			<data auto_broadcast="numpy" />
			<input>
				<port id="0" precision="FP32">
					<dim>1</dim>
					<dim>1</dim>
					<dim>8</dim>
					<dim>162</dim>
				</port>
				<port id="1" precision="FP32">
					<dim>1</dim>
					<dim>1</dim>
					<dim>1</dim>
					<dim>1</dim>
				</port>
			</input>
			<output>
				<port id="2" precision="FP32" names="/neural_model/separate_blocks.0/intra_norm/Add_1_output_0">
					<dim>1</dim>
					<dim>1</dim>
					<dim>8</dim>
					<dim>162</dim>
				</port>
			</output>
		</layer>
		<layer id="152" name="/neural_model/separate_blocks.0/intra_norm/Div" type="Divide" version="opset1">
			<data auto_broadcast="numpy" m_pythondiv="true" />
			<input>
				<port id="0" precision="FP32">
					<dim>1</dim>
					<dim>64</dim>
					<dim>8</dim>
					<dim>162</dim>
				</port>
				<port id="1" precision="FP32">
					<dim>1</dim>
					<dim>1</dim>
					<dim>8</dim>
					<dim>162</dim>
				</port>
			</input>
			<output>
				<port id="2" precision="FP32" names="/neural_model/separate_blocks.0/intra_norm/Div_output_0">
					<dim>1</dim>
					<dim>64</dim>
					<dim>8</dim>
					<dim>162</dim>
				</port>
			</output>
		</layer>
		<layer id="153" name="neural_model.separate_blocks.0.intra_norm.gamma_compressed" type="Const" version="opset1">
			<data element_type="f16" shape="1, 64, 1, 1" offset="279390" size="128" />
			<output>
				<port id="0" precision="FP16" names="neural_model.separate_blocks.0.intra_norm.gamma">
					<dim>1</dim>
					<dim>64</dim>
					<dim>1</dim>
					<dim>1</dim>
				</port>
			</output>
		</layer>
		<layer id="154" name="neural_model.separate_blocks.0.intra_norm.gamma" type="Convert" version="opset1">
			<data destination_type="f32" />
			<rt_info>
				<attribute name="decompression" version="0" />
			</rt_info>
			<input>
				<port id="0" precision="FP16">
					<dim>1</dim>
					<dim>64</dim>
					<dim>1</dim>
					<dim>1</dim>
				</port>
			</input>
			<output>
				<port id="1" precision="FP32">
					<dim>1</dim>
					<dim>64</dim>
					<dim>1</dim>
					<dim>1</dim>
				</port>
			</output>
		</layer>
		<layer id="155" name="/neural_model/separate_blocks.0/intra_norm/Mul_1" type="Multiply" version="opset1">
			<data auto_broadcast="numpy" />
			<input>
				<port id="0" precision="FP32">
					<dim>1</dim>
					<dim>64</dim>
					<dim>8</dim>
					<dim>162</dim>
				</port>
				<port id="1" precision="FP32">
					<dim>1</dim>
					<dim>64</dim>
					<dim>1</dim>
					<dim>1</dim>
				</port>
			</input>
			<output>
				<port id="2" precision="FP32" names="/neural_model/separate_blocks.0/intra_norm/Mul_1_output_0">
					<dim>1</dim>
					<dim>64</dim>
					<dim>8</dim>
					<dim>162</dim>
				</port>
			</output>
		</layer>
		<layer id="156" name="neural_model.separate_blocks.0.intra_norm.beta_compressed" type="Const" version="opset1">
			<data element_type="f16" shape="1, 64, 1, 1" offset="279518" size="128" />
			<output>
				<port id="0" precision="FP16" names="neural_model.separate_blocks.0.intra_norm.beta">
					<dim>1</dim>
					<dim>64</dim>
					<dim>1</dim>
					<dim>1</dim>
				</port>
			</output>
		</layer>
		<layer id="157" name="neural_model.separate_blocks.0.intra_norm.beta" type="Convert" version="opset1">
			<data destination_type="f32" />
			<rt_info>
				<attribute name="decompression" version="0" />
			</rt_info>
			<input>
				<port id="0" precision="FP16">
					<dim>1</dim>
					<dim>64</dim>
					<dim>1</dim>
					<dim>1</dim>
				</port>
			</input>
			<output>
				<port id="1" precision="FP32">
					<dim>1</dim>
					<dim>64</dim>
					<dim>1</dim>
					<dim>1</dim>
				</port>
			</output>
		</layer>
		<layer id="158" name="/neural_model/separate_blocks.0/intra_norm/Add_2" type="Add" version="opset1">
			<data auto_broadcast="numpy" />
			<input>
				<port id="0" precision="FP32">
					<dim>1</dim>
					<dim>64</dim>
					<dim>8</dim>
					<dim>162</dim>
				</port>
				<port id="1" precision="FP32">
					<dim>1</dim>
					<dim>64</dim>
					<dim>1</dim>
					<dim>1</dim>
				</port>
			</input>
			<output>
				<port id="2" precision="FP32" names="/neural_model/separate_blocks.0/intra_norm/Add_2_output_0">
					<dim>1</dim>
					<dim>64</dim>
					<dim>8</dim>
					<dim>162</dim>
				</port>
			</output>
		</layer>
		<layer id="159" name="Constant_532" type="Const" version="opset1">
			<data element_type="i64" shape="4" offset="279646" size="32" />
			<output>
				<port id="0" precision="I64">
					<dim>4</dim>
				</port>
			</output>
		</layer>
		<layer id="160" name="/neural_model/separate_blocks.0/Transpose_1" type="Transpose" version="opset1">
			<input>
				<port id="0" precision="FP32">
					<dim>1</dim>
					<dim>64</dim>
					<dim>8</dim>
					<dim>162</dim>
				</port>
				<port id="1" precision="I64">
					<dim>4</dim>
				</port>
			</input>
			<output>
				<port id="2" precision="FP32" names="/neural_model/separate_blocks.0/Transpose_1_output_0">
					<dim>1</dim>
					<dim>8</dim>
					<dim>64</dim>
					<dim>162</dim>
				</port>
			</output>
		</layer>
		<layer id="161" name="/neural_model/separate_blocks.0/Constant_8_output_0" type="Const" version="opset1">
			<data element_type="i64" shape="3" offset="279678" size="24" />
			<rt_info>
				<attribute name="precise" version="0" />
			</rt_info>
			<output>
				<port id="0" precision="I64" names="/neural_model/separate_blocks.0/Constant_8_output_0">
					<dim>3</dim>
				</port>
			</output>
		</layer>
		<layer id="162" name="/neural_model/separate_blocks.0/Reshape_2" type="Reshape" version="opset1">
			<data special_zero="true" />
			<input>
				<port id="0" precision="FP32">
					<dim>1</dim>
					<dim>8</dim>
					<dim>64</dim>
					<dim>162</dim>
				</port>
				<port id="1" precision="I64">
					<dim>3</dim>
				</port>
			</input>
			<output>
				<port id="2" precision="FP32" names="/neural_model/separate_blocks.0/Reshape_2_output_0">
					<dim>8</dim>
					<dim>64</dim>
					<dim>162</dim>
				</port>
			</output>
		</layer>
		<layer id="163" name="/neural_model/separate_blocks.0/Unsqueeze" type="Unsqueeze" version="opset1">
			<input>
				<port id="0" precision="FP32">
					<dim>8</dim>
					<dim>64</dim>
					<dim>162</dim>
				</port>
				<port id="1" precision="I64">
					<dim>1</dim>
				</port>
			</input>
			<output>
				<port id="2" precision="FP32" names="/neural_model/separate_blocks.0/Unsqueeze_output_0">
					<dim>8</dim>
					<dim>64</dim>
					<dim>162</dim>
					<dim>1</dim>
				</port>
			</output>
		</layer>
		<layer id="164" name="/neural_model/separate_blocks.0/Add_1_output_0" type="Const" version="opset1">
			<data element_type="i64" shape="4, 80" offset="279702" size="2560" />
			<output>
				<port id="0" precision="I64" names="/neural_model/separate_blocks.0/Add_1_output_0">
					<dim>4</dim>
					<dim>80</dim>
				</port>
			</output>
		</layer>
		<layer id="165" name="Constant_536" type="Const" version="opset1">
			<data element_type="i64" shape="" offset="229216" size="8" />
			<output>
				<port id="0" precision="I64" />
			</output>
		</layer>
		<layer id="166" name="/neural_model/separate_blocks.0/Gather_4" type="Gather" version="opset8">
			<data batch_dims="0" />
			<input>
				<port id="0" precision="FP32">
					<dim>8</dim>
					<dim>64</dim>
					<dim>162</dim>
					<dim>1</dim>
				</port>
				<port id="1" precision="I64">
					<dim>4</dim>
					<dim>80</dim>
				</port>
				<port id="2" precision="I64" />
			</input>
			<output>
				<port id="3" precision="FP32" names="/neural_model/separate_blocks.0/Gather_4_output_0">
					<dim>8</dim>
					<dim>64</dim>
					<dim>4</dim>
					<dim>80</dim>
					<dim>1</dim>
				</port>
			</output>
		</layer>
		<layer id="167" name="/neural_model/Constant_5_output_0" type="Const" version="opset1">
			<data element_type="i64" shape="1, 1" offset="226696" size="8" />
			<output>
				<port id="0" precision="I64" names="/neural_model/Constant_5_output_0">
					<dim>1</dim>
					<dim>1</dim>
				</port>
			</output>
		</layer>
		<layer id="168" name="Constant_538" type="Const" version="opset1">
			<data element_type="i64" shape="" offset="282262" size="8" />
			<output>
				<port id="0" precision="I64" />
			</output>
		</layer>
		<layer id="169" name="/neural_model/separate_blocks.0/Gather_5" type="Gather" version="opset8">
			<data batch_dims="0" />
			<input>
				<port id="0" precision="FP32">
					<dim>8</dim>
					<dim>64</dim>
					<dim>4</dim>
					<dim>80</dim>
					<dim>1</dim>
				</port>
				<port id="1" precision="I64">
					<dim>1</dim>
					<dim>1</dim>
				</port>
				<port id="2" precision="I64" />
			</input>
			<output>
				<port id="3" precision="FP32" names="/neural_model/separate_blocks.0/Gather_5_output_0">
					<dim>8</dim>
					<dim>64</dim>
					<dim>4</dim>
					<dim>80</dim>
					<dim>1</dim>
					<dim>1</dim>
				</port>
			</output>
		</layer>
		<layer id="170" name="Constant_5974" type="Const" version="opset1">
			<data element_type="i64" shape="3" offset="282270" size="24" />
			<rt_info>
				<attribute name="precise" version="0" />
			</rt_info>
			<output>
				<port id="0" precision="I64">
					<dim>3</dim>
				</port>
			</output>
		</layer>
		<layer id="171" name="/neural_model/separate_blocks.0/Reshape_3" type="Reshape" version="opset1">
			<data special_zero="false" />
			<input>
				<port id="0" precision="FP32">
					<dim>8</dim>
					<dim>64</dim>
					<dim>4</dim>
					<dim>80</dim>
					<dim>1</dim>
					<dim>1</dim>
				</port>
				<port id="1" precision="I64">
					<dim>3</dim>
				</port>
			</input>
			<output>
				<port id="2" precision="FP32" names="/neural_model/separate_blocks.0/Reshape_3_output_0">
					<dim>8</dim>
					<dim>256</dim>
					<dim>80</dim>
				</port>
			</output>
		</layer>
		<layer id="172" name="Constant_4693" type="Const" version="opset1">
			<data element_type="i64" shape="3" offset="282294" size="24" />
			<output>
				<port id="0" precision="I64">
					<dim>3</dim>
				</port>
			</output>
		</layer>
		<layer id="173" name="Transpose_547" type="Transpose" version="opset1">
			<input>
				<port id="0" precision="FP32">
					<dim>8</dim>
					<dim>256</dim>
					<dim>80</dim>
				</port>
				<port id="1" precision="I64">
					<dim>3</dim>
				</port>
			</input>
			<output>
				<port id="2" precision="FP32">
					<dim>8</dim>
					<dim>80</dim>
					<dim>256</dim>
				</port>
			</output>
		</layer>
		<layer id="174" name="Transpose_566_compressed" type="Const" version="opset1">
			<data element_type="f16" shape="8, 2, 192" offset="282318" size="6144" />
			<output>
				<port id="0" precision="FP16">
					<dim>8</dim>
					<dim>2</dim>
					<dim>192</dim>
				</port>
			</output>
		</layer>
		<layer id="175" name="Transpose_566" type="Convert" version="opset1">
			<data destination_type="f32" />
			<rt_info>
				<attribute name="decompression" version="0" />
			</rt_info>
			<input>
				<port id="0" precision="FP16">
					<dim>8</dim>
					<dim>2</dim>
					<dim>192</dim>
				</port>
			</input>
			<output>
				<port id="1" precision="FP32">
					<dim>8</dim>
					<dim>2</dim>
					<dim>192</dim>
				</port>
			</output>
		</layer>
		<layer id="176" name="ShapeOf_548" type="ShapeOf" version="opset3">
			<data output_type="i64" />
			<input>
				<port id="0" precision="FP32">
					<dim>8</dim>
					<dim>80</dim>
					<dim>256</dim>
				</port>
			</input>
			<output>
				<port id="1" precision="I64">
					<dim>3</dim>
				</port>
			</output>
		</layer>
		<layer id="177" name="Constant_552" type="Const" version="opset1">
			<data element_type="i32" shape="1" offset="288462" size="4" />
			<output>
				<port id="0" precision="I32">
					<dim>1</dim>
				</port>
			</output>
		</layer>
		<layer id="178" name="Constant_549" type="Const" version="opset1">
			<data element_type="i32" shape="1" offset="288466" size="4" />
			<rt_info>
				<attribute name="precise" version="0" />
			</rt_info>
			<output>
				<port id="0" precision="I32">
					<dim>1</dim>
				</port>
			</output>
		</layer>
		<layer id="179" name="Gather_553" type="Gather" version="opset8">
			<data batch_dims="0" />
			<input>
				<port id="0" precision="I64">
					<dim>3</dim>
				</port>
				<port id="1" precision="I32">
					<dim>1</dim>
				</port>
				<port id="2" precision="I32">
					<dim>1</dim>
				</port>
			</input>
			<output>
				<port id="3" precision="I64">
					<dim>1</dim>
				</port>
			</output>
		</layer>
		<layer id="180" name="Constant_550" type="Const" version="opset1">
			<data element_type="i32" shape="1" offset="288466" size="4" />
			<rt_info>
				<attribute name="precise" version="0" />
			</rt_info>
			<output>
				<port id="0" precision="I32">
					<dim>1</dim>
				</port>
			</output>
		</layer>
		<layer id="181" name="Gather_551" type="Gather" version="opset8">
			<data batch_dims="0" />
			<input>
				<port id="0" precision="I64">
					<dim>3</dim>
				</port>
				<port id="1" precision="I32">
					<dim>1</dim>
				</port>
				<port id="2" precision="I32">
					<dim>1</dim>
				</port>
			</input>
			<output>
				<port id="3" precision="I64">
					<dim>1</dim>
				</port>
			</output>
		</layer>
		<layer id="182" name="Broadcast_562" type="Broadcast" version="opset3">
			<data mode="numpy" />
			<input>
				<port id="0" precision="I64">
					<dim>1</dim>
				</port>
				<port id="1" precision="I64">
					<dim>1</dim>
				</port>
			</input>
			<output>
				<port id="2" precision="I64">
					<dim>8</dim>
				</port>
			</output>
		</layer>
		<layer id="183" name="onnx::GRU_4031_compressed" type="Const" version="opset1">
			<data element_type="f16" shape="2, 576, 256" offset="288470" size="589824" />
			<output>
				<port id="0" precision="FP16" names="onnx::GRU_4031">
					<dim>2</dim>
					<dim>576</dim>
					<dim>256</dim>
				</port>
			</output>
		</layer>
		<layer id="184" name="onnx::GRU_4031" type="Convert" version="opset1">
			<data destination_type="f32" />
			<rt_info>
				<attribute name="decompression" version="0" />
			</rt_info>
			<input>
				<port id="0" precision="FP16">
					<dim>2</dim>
					<dim>576</dim>
					<dim>256</dim>
				</port>
			</input>
			<output>
				<port id="1" precision="FP32">
					<dim>2</dim>
					<dim>576</dim>
					<dim>256</dim>
				</port>
			</output>
		</layer>
		<layer id="185" name="onnx::GRU_4032_compressed" type="Const" version="opset1">
			<data element_type="f16" shape="2, 576, 192" offset="878294" size="442368" />
			<output>
				<port id="0" precision="FP16" names="onnx::GRU_4032">
					<dim>2</dim>
					<dim>576</dim>
					<dim>192</dim>
				</port>
			</output>
		</layer>
		<layer id="186" name="onnx::GRU_4032" type="Convert" version="opset1">
			<data destination_type="f32" />
			<rt_info>
				<attribute name="decompression" version="0" />
			</rt_info>
			<input>
				<port id="0" precision="FP16">
					<dim>2</dim>
					<dim>576</dim>
					<dim>192</dim>
				</port>
			</input>
			<output>
				<port id="1" precision="FP32">
					<dim>2</dim>
					<dim>576</dim>
					<dim>192</dim>
				</port>
			</output>
		</layer>
		<layer id="187" name="Concat_572_compressed" type="Const" version="opset1">
			<data element_type="f16" shape="2, 768" offset="1320662" size="3072" />
			<output>
				<port id="0" precision="FP16">
					<dim>2</dim>
					<dim>768</dim>
				</port>
			</output>
		</layer>
		<layer id="188" name="Concat_572" type="Convert" version="opset1">
			<data destination_type="f32" />
			<rt_info>
				<attribute name="decompression" version="0" />
			</rt_info>
			<input>
				<port id="0" precision="FP16">
					<dim>2</dim>
					<dim>768</dim>
				</port>
			</input>
			<output>
				<port id="1" precision="FP32">
					<dim>2</dim>
					<dim>768</dim>
				</port>
			</output>
		</layer>
		<layer id="189" name="GRUSequence_573" type="GRUSequence" version="opset5">
			<data direction="bidirectional" linear_before_reset="true" hidden_size="192" activations="sigmoid, tanh" activations_alpha="" activations_beta="" clip="0" />
			<input>
				<port id="0" precision="FP32">
					<dim>8</dim>
					<dim>80</dim>
					<dim>256</dim>
				</port>
				<port id="1" precision="FP32">
					<dim>8</dim>
					<dim>2</dim>
					<dim>192</dim>
				</port>
				<port id="2" precision="I64">
					<dim>8</dim>
				</port>
				<port id="3" precision="FP32">
					<dim>2</dim>
					<dim>576</dim>
					<dim>256</dim>
				</port>
				<port id="4" precision="FP32">
					<dim>2</dim>
					<dim>576</dim>
					<dim>192</dim>
				</port>
				<port id="5" precision="FP32">
					<dim>2</dim>
					<dim>768</dim>
				</port>
			</input>
			<output>
				<port id="6" precision="FP32">
					<dim>8</dim>
					<dim>2</dim>
					<dim>80</dim>
					<dim>192</dim>
				</port>
				<port id="7" precision="FP32">
					<dim>8</dim>
					<dim>2</dim>
					<dim>192</dim>
				</port>
			</output>
		</layer>
		<layer id="190" name="Constant_4695" type="Const" version="opset1">
			<data element_type="i64" shape="4" offset="254354" size="32" />
			<output>
				<port id="0" precision="I64">
					<dim>4</dim>
				</port>
			</output>
		</layer>
		<layer id="191" name="/neural_model/separate_blocks.0/intra_rnn/Transpose_1" type="Transpose" version="opset1">
			<input>
				<port id="0" precision="FP32">
					<dim>8</dim>
					<dim>2</dim>
					<dim>80</dim>
					<dim>192</dim>
				</port>
				<port id="1" precision="I64">
					<dim>4</dim>
				</port>
			</input>
			<output>
				<port id="2" precision="FP32" names="/neural_model/separate_blocks.0/intra_rnn/Transpose_1_output_0">
					<dim>80</dim>
					<dim>8</dim>
					<dim>2</dim>
					<dim>192</dim>
				</port>
			</output>
		</layer>
		<layer id="192" name="/neural_model/separate_blocks.0/intra_rnn/Constant_3_output_0" type="Const" version="opset1">
			<data element_type="i64" shape="3" offset="1323734" size="24" />
			<rt_info>
				<attribute name="precise" version="0" />
			</rt_info>
			<output>
				<port id="0" precision="I64" names="/neural_model/separate_blocks.0/intra_rnn/Constant_3_output_0">
					<dim>3</dim>
				</port>
			</output>
		</layer>
		<layer id="193" name="/neural_model/separate_blocks.0/intra_rnn/Reshape" type="Reshape" version="opset1">
			<data special_zero="true" />
			<input>
				<port id="0" precision="FP32">
					<dim>80</dim>
					<dim>8</dim>
					<dim>2</dim>
					<dim>192</dim>
				</port>
				<port id="1" precision="I64">
					<dim>3</dim>
				</port>
			</input>
			<output>
				<port id="2" precision="FP32" names="/neural_model/separate_blocks.0/intra_rnn/Reshape_output_0">
					<dim>80</dim>
					<dim>8</dim>
					<dim>384</dim>
				</port>
			</output>
		</layer>
		<layer id="194" name="Constant_581" type="Const" version="opset1">
			<data element_type="i64" shape="3" offset="1323758" size="24" />
			<output>
				<port id="0" precision="I64">
					<dim>3</dim>
				</port>
			</output>
		</layer>
		<layer id="195" name="/neural_model/separate_blocks.0/Transpose_3" type="Transpose" version="opset1">
			<input>
				<port id="0" precision="FP32">
					<dim>80</dim>
					<dim>8</dim>
					<dim>384</dim>
				</port>
				<port id="1" precision="I64">
					<dim>3</dim>
				</port>
			</input>
			<output>
				<port id="2" precision="FP32" names="/neural_model/separate_blocks.0/Transpose_3_output_0">
					<dim>8</dim>
					<dim>384</dim>
					<dim>80</dim>
				</port>
			</output>
		</layer>
		<layer id="196" name="neural_model.separate_blocks.0.intra_linear.weight_compressed" type="Const" version="opset1">
			<data element_type="f16" shape="384, 64, 4" offset="1323782" size="196608" />
			<output>
				<port id="0" precision="FP16" names="neural_model.separate_blocks.0.intra_linear.weight">
					<dim>384</dim>
					<dim>64</dim>
					<dim>4</dim>
				</port>
			</output>
		</layer>
		<layer id="197" name="neural_model.separate_blocks.0.intra_linear.weight" type="Convert" version="opset1">
			<data destination_type="f32" />
			<rt_info>
				<attribute name="decompression" version="0" />
			</rt_info>
			<input>
				<port id="0" precision="FP16">
					<dim>384</dim>
					<dim>64</dim>
					<dim>4</dim>
				</port>
			</input>
			<output>
				<port id="1" precision="FP32">
					<dim>384</dim>
					<dim>64</dim>
					<dim>4</dim>
				</port>
			</output>
		</layer>
		<layer id="198" name="ConvolutionBackpropData_583" type="ConvolutionBackpropData" version="opset1">
			<data strides="2" dilations="1" pads_begin="0" pads_end="0" auto_pad="explicit" output_padding="0" />
			<input>
				<port id="0" precision="FP32">
					<dim>8</dim>
					<dim>384</dim>
					<dim>80</dim>
				</port>
				<port id="1" precision="FP32">
					<dim>384</dim>
					<dim>64</dim>
					<dim>4</dim>
				</port>
			</input>
			<output>
				<port id="2" precision="FP32">
					<dim>8</dim>
					<dim>64</dim>
					<dim>162</dim>
				</port>
			</output>
		</layer>
		<layer id="199" name="Reshape_585_compressed" type="Const" version="opset1">
			<data element_type="f16" shape="1, 64, 1" offset="1520390" size="128" />
			<output>
				<port id="0" precision="FP16">
					<dim>1</dim>
					<dim>64</dim>
					<dim>1</dim>
				</port>
			</output>
		</layer>
		<layer id="200" name="Reshape_585" type="Convert" version="opset1">
			<data destination_type="f32" />
			<rt_info>
				<attribute name="decompression" version="0" />
			</rt_info>
			<input>
				<port id="0" precision="FP16">
					<dim>1</dim>
					<dim>64</dim>
					<dim>1</dim>
				</port>
			</input>
			<output>
				<port id="1" precision="FP32">
					<dim>1</dim>
					<dim>64</dim>
					<dim>1</dim>
				</port>
			</output>
		</layer>
		<layer id="201" name="/neural_model/separate_blocks.0/intra_linear/ConvTranspose" type="Add" version="opset1">
			<data auto_broadcast="numpy" />
			<input>
				<port id="0" precision="FP32">
					<dim>8</dim>
					<dim>64</dim>
					<dim>162</dim>
				</port>
				<port id="1" precision="FP32">
					<dim>1</dim>
					<dim>64</dim>
					<dim>1</dim>
				</port>
			</input>
			<output>
				<port id="2" precision="FP32" names="/neural_model/separate_blocks.0/intra_linear/ConvTranspose_output_0">
					<dim>8</dim>
					<dim>64</dim>
					<dim>162</dim>
				</port>
			</output>
		</layer>
		<layer id="202" name="/neural_model/separate_blocks.0/Constant_31_output_0" type="Const" version="opset1">
			<data element_type="i64" shape="4" offset="1520518" size="32" />
			<rt_info>
				<attribute name="precise" version="0" />
			</rt_info>
			<output>
				<port id="0" precision="I64" names="/neural_model/separate_blocks.0/Constant_31_output_0">
					<dim>4</dim>
				</port>
			</output>
		</layer>
		<layer id="203" name="/neural_model/separate_blocks.0/Reshape_4" type="Reshape" version="opset1">
			<data special_zero="true" />
			<input>
				<port id="0" precision="FP32">
					<dim>8</dim>
					<dim>64</dim>
					<dim>162</dim>
				</port>
				<port id="1" precision="I64">
					<dim>4</dim>
				</port>
			</input>
			<output>
				<port id="2" precision="FP32" names="/neural_model/separate_blocks.0/Reshape_4_output_0">
					<dim>1</dim>
					<dim>8</dim>
					<dim>64</dim>
					<dim>162</dim>
				</port>
			</output>
		</layer>
		<layer id="204" name="Constant_588" type="Const" version="opset1">
			<data element_type="i64" shape="4" offset="279646" size="32" />
			<output>
				<port id="0" precision="I64">
					<dim>4</dim>
				</port>
			</output>
		</layer>
		<layer id="205" name="/neural_model/separate_blocks.0/Transpose_4" type="Transpose" version="opset1">
			<input>
				<port id="0" precision="FP32">
					<dim>1</dim>
					<dim>8</dim>
					<dim>64</dim>
					<dim>162</dim>
				</port>
				<port id="1" precision="I64">
					<dim>4</dim>
				</port>
			</input>
			<output>
				<port id="2" precision="FP32" names="/neural_model/separate_blocks.0/Transpose_4_output_0">
					<dim>1</dim>
					<dim>64</dim>
					<dim>8</dim>
					<dim>162</dim>
				</port>
			</output>
		</layer>
		<layer id="206" name="/neural_model/separate_blocks.0/Add_4" type="Add" version="opset1">
			<data auto_broadcast="numpy" />
			<input>
				<port id="0" precision="FP32">
					<dim>1</dim>
					<dim>64</dim>
					<dim>8</dim>
					<dim>162</dim>
				</port>
				<port id="1" precision="FP32">
					<dim>1</dim>
					<dim>64</dim>
					<dim>8</dim>
					<dim>162</dim>
				</port>
			</input>
			<output>
				<port id="2" precision="FP32" names="/neural_model/separate_blocks.0/Add_4_output_0">
					<dim>1</dim>
					<dim>64</dim>
					<dim>8</dim>
					<dim>162</dim>
				</port>
			</output>
		</layer>
		<layer id="207" name="Constant_591" type="Const" version="opset1">
			<data element_type="i64" shape="1" offset="20608" size="8" />
			<output>
				<port id="0" precision="I64">
					<dim>1</dim>
				</port>
			</output>
		</layer>
		<layer id="208" name="/neural_model/separate_blocks.0/inter_norm/ReduceMean" type="ReduceMean" version="opset1">
			<data keep_dims="true" />
			<input>
				<port id="0" precision="FP32">
					<dim>1</dim>
					<dim>64</dim>
					<dim>8</dim>
					<dim>162</dim>
				</port>
				<port id="1" precision="I64">
					<dim>1</dim>
				</port>
			</input>
			<output>
				<port id="2" precision="FP32" names="/neural_model/separate_blocks.0/inter_norm/ReduceMean_output_0">
					<dim>1</dim>
					<dim>1</dim>
					<dim>8</dim>
					<dim>162</dim>
				</port>
			</output>
		</layer>
		<layer id="209" name="/neural_model/separate_blocks.0/inter_norm/Sub" type="Subtract" version="opset1">
			<data auto_broadcast="numpy" />
			<input>
				<port id="0" precision="FP32">
					<dim>1</dim>
					<dim>64</dim>
					<dim>8</dim>
					<dim>162</dim>
				</port>
				<port id="1" precision="FP32">
					<dim>1</dim>
					<dim>1</dim>
					<dim>8</dim>
					<dim>162</dim>
				</port>
			</input>
			<output>
				<port id="2" precision="FP32" names="/neural_model/separate_blocks.0/inter_norm/Sub_output_0">
					<dim>1</dim>
					<dim>64</dim>
					<dim>8</dim>
					<dim>162</dim>
				</port>
			</output>
		</layer>
		<layer id="210" name="/neural_model/separate_blocks.0/inter_norm/Mul" type="Multiply" version="opset1">
			<data auto_broadcast="numpy" />
			<input>
				<port id="0" precision="FP32">
					<dim>1</dim>
					<dim>64</dim>
					<dim>8</dim>
					<dim>162</dim>
				</port>
				<port id="1" precision="FP32">
					<dim>1</dim>
					<dim>64</dim>
					<dim>8</dim>
					<dim>162</dim>
				</port>
			</input>
			<output>
				<port id="2" precision="FP32" names="/neural_model/separate_blocks.0/inter_norm/Mul_output_0">
					<dim>1</dim>
					<dim>64</dim>
					<dim>8</dim>
					<dim>162</dim>
				</port>
			</output>
		</layer>
		<layer id="211" name="Constant_595" type="Const" version="opset1">
			<data element_type="i64" shape="1" offset="20608" size="8" />
			<output>
				<port id="0" precision="I64">
					<dim>1</dim>
				</port>
			</output>
		</layer>
		<layer id="212" name="/neural_model/separate_blocks.0/inter_norm/ReduceMean_2" type="ReduceMean" version="opset1">
			<data keep_dims="true" />
			<input>
				<port id="0" precision="FP32">
					<dim>1</dim>
					<dim>64</dim>
					<dim>8</dim>
					<dim>162</dim>
				</port>
				<port id="1" precision="I64">
					<dim>1</dim>
				</port>
			</input>
			<output>
				<port id="2" precision="FP32" names="/neural_model/separate_blocks.0/inter_norm/ReduceMean_2_output_0">
					<dim>1</dim>
					<dim>1</dim>
					<dim>8</dim>
					<dim>162</dim>
				</port>
			</output>
		</layer>
		<layer id="213" name="Constant_5713_compressed" type="Const" version="opset1">
			<data element_type="f16" shape="1, 1, 1, 1" offset="279388" size="2" />
			<output>
				<port id="0" precision="FP16">
					<dim>1</dim>
					<dim>1</dim>
					<dim>1</dim>
					<dim>1</dim>
				</port>
			</output>
		</layer>
		<layer id="214" name="Constant_5713" type="Convert" version="opset1">
			<data destination_type="f32" />
			<rt_info>
				<attribute name="decompression" version="0" />
			</rt_info>
			<input>
				<port id="0" precision="FP16">
					<dim>1</dim>
					<dim>1</dim>
					<dim>1</dim>
					<dim>1</dim>
				</port>
			</input>
			<output>
				<port id="1" precision="FP32">
					<dim>1</dim>
					<dim>1</dim>
					<dim>1</dim>
					<dim>1</dim>
				</port>
			</output>
		</layer>
		<layer id="215" name="/neural_model/separate_blocks.0/inter_norm/Add" type="Add" version="opset1">
			<data auto_broadcast="numpy" />
			<input>
				<port id="0" precision="FP32">
					<dim>1</dim>
					<dim>1</dim>
					<dim>8</dim>
					<dim>162</dim>
				</port>
				<port id="1" precision="FP32">
					<dim>1</dim>
					<dim>1</dim>
					<dim>1</dim>
					<dim>1</dim>
				</port>
			</input>
			<output>
				<port id="2" precision="FP32" names="/neural_model/separate_blocks.0/inter_norm/Add_output_0">
					<dim>1</dim>
					<dim>1</dim>
					<dim>8</dim>
					<dim>162</dim>
				</port>
			</output>
		</layer>
		<layer id="216" name="/neural_model/separate_blocks.0/inter_norm/Sqrt" type="Sqrt" version="opset1">
			<input>
				<port id="0" precision="FP32">
					<dim>1</dim>
					<dim>1</dim>
					<dim>8</dim>
					<dim>162</dim>
				</port>
			</input>
			<output>
				<port id="1" precision="FP32" names="/neural_model/separate_blocks.0/inter_norm/Sqrt_output_0">
					<dim>1</dim>
					<dim>1</dim>
					<dim>8</dim>
					<dim>162</dim>
				</port>
			</output>
		</layer>
		<layer id="217" name="Constant_5714_compressed" type="Const" version="opset1">
			<data element_type="f16" shape="1, 1, 1, 1" offset="279388" size="2" />
			<output>
				<port id="0" precision="FP16">
					<dim>1</dim>
					<dim>1</dim>
					<dim>1</dim>
					<dim>1</dim>
				</port>
			</output>
		</layer>
		<layer id="218" name="Constant_5714" type="Convert" version="opset1">
			<data destination_type="f32" />
			<rt_info>
				<attribute name="decompression" version="0" />
			</rt_info>
			<input>
				<port id="0" precision="FP16">
					<dim>1</dim>
					<dim>1</dim>
					<dim>1</dim>
					<dim>1</dim>
				</port>
			</input>
			<output>
				<port id="1" precision="FP32">
					<dim>1</dim>
					<dim>1</dim>
					<dim>1</dim>
					<dim>1</dim>
				</port>
			</output>
		</layer>
		<layer id="219" name="/neural_model/separate_blocks.0/inter_norm/Add_1" type="Add" version="opset1">
			<data auto_broadcast="numpy" />
			<input>
				<port id="0" precision="FP32">
					<dim>1</dim>
					<dim>1</dim>
					<dim>8</dim>
					<dim>162</dim>
				</port>
				<port id="1" precision="FP32">
					<dim>1</dim>
					<dim>1</dim>
					<dim>1</dim>
					<dim>1</dim>
				</port>
			</input>
			<output>
				<port id="2" precision="FP32" names="/neural_model/separate_blocks.0/inter_norm/Add_1_output_0">
					<dim>1</dim>
					<dim>1</dim>
					<dim>8</dim>
					<dim>162</dim>
				</port>
			</output>
		</layer>
		<layer id="220" name="/neural_model/separate_blocks.0/inter_norm/Div" type="Divide" version="opset1">
			<data auto_broadcast="numpy" m_pythondiv="true" />
			<input>
				<port id="0" precision="FP32">
					<dim>1</dim>
					<dim>64</dim>
					<dim>8</dim>
					<dim>162</dim>
				</port>
				<port id="1" precision="FP32">
					<dim>1</dim>
					<dim>1</dim>
					<dim>8</dim>
					<dim>162</dim>
				</port>
			</input>
			<output>
				<port id="2" precision="FP32" names="/neural_model/separate_blocks.0/inter_norm/Div_output_0">
					<dim>1</dim>
					<dim>64</dim>
					<dim>8</dim>
					<dim>162</dim>
				</port>
			</output>
		</layer>
		<layer id="221" name="neural_model.separate_blocks.0.inter_norm.gamma_compressed" type="Const" version="opset1">
			<data element_type="f16" shape="1, 64, 1, 1" offset="1520550" size="128" />
			<output>
				<port id="0" precision="FP16" names="neural_model.separate_blocks.0.inter_norm.gamma">
					<dim>1</dim>
					<dim>64</dim>
					<dim>1</dim>
					<dim>1</dim>
				</port>
			</output>
		</layer>
		<layer id="222" name="neural_model.separate_blocks.0.inter_norm.gamma" type="Convert" version="opset1">
			<data destination_type="f32" />
			<rt_info>
				<attribute name="decompression" version="0" />
			</rt_info>
			<input>
				<port id="0" precision="FP16">
					<dim>1</dim>
					<dim>64</dim>
					<dim>1</dim>
					<dim>1</dim>
				</port>
			</input>
			<output>
				<port id="1" precision="FP32">
					<dim>1</dim>
					<dim>64</dim>
					<dim>1</dim>
					<dim>1</dim>
				</port>
			</output>
		</layer>
		<layer id="223" name="/neural_model/separate_blocks.0/inter_norm/Mul_1" type="Multiply" version="opset1">
			<data auto_broadcast="numpy" />
			<input>
				<port id="0" precision="FP32">
					<dim>1</dim>
					<dim>64</dim>
					<dim>8</dim>
					<dim>162</dim>
				</port>
				<port id="1" precision="FP32">
					<dim>1</dim>
					<dim>64</dim>
					<dim>1</dim>
					<dim>1</dim>
				</port>
			</input>
			<output>
				<port id="2" precision="FP32" names="/neural_model/separate_blocks.0/inter_norm/Mul_1_output_0">
					<dim>1</dim>
					<dim>64</dim>
					<dim>8</dim>
					<dim>162</dim>
				</port>
			</output>
		</layer>
		<layer id="224" name="neural_model.separate_blocks.0.inter_norm.beta_compressed" type="Const" version="opset1">
			<data element_type="f16" shape="1, 64, 1, 1" offset="1520678" size="128" />
			<output>
				<port id="0" precision="FP16" names="neural_model.separate_blocks.0.inter_norm.beta">
					<dim>1</dim>
					<dim>64</dim>
					<dim>1</dim>
					<dim>1</dim>
				</port>
			</output>
		</layer>
		<layer id="225" name="neural_model.separate_blocks.0.inter_norm.beta" type="Convert" version="opset1">
			<data destination_type="f32" />
			<rt_info>
				<attribute name="decompression" version="0" />
			</rt_info>
			<input>
				<port id="0" precision="FP16">
					<dim>1</dim>
					<dim>64</dim>
					<dim>1</dim>
					<dim>1</dim>
				</port>
			</input>
			<output>
				<port id="1" precision="FP32">
					<dim>1</dim>
					<dim>64</dim>
					<dim>1</dim>
					<dim>1</dim>
				</port>
			</output>
		</layer>
		<layer id="226" name="/neural_model/separate_blocks.0/inter_norm/Add_2" type="Add" version="opset1">
			<data auto_broadcast="numpy" />
			<input>
				<port id="0" precision="FP32">
					<dim>1</dim>
					<dim>64</dim>
					<dim>8</dim>
					<dim>162</dim>
				</port>
				<port id="1" precision="FP32">
					<dim>1</dim>
					<dim>64</dim>
					<dim>1</dim>
					<dim>1</dim>
				</port>
			</input>
			<output>
				<port id="2" precision="FP32" names="/neural_model/separate_blocks.0/inter_norm/Add_2_output_0">
					<dim>1</dim>
					<dim>64</dim>
					<dim>8</dim>
					<dim>162</dim>
				</port>
			</output>
		</layer>
		<layer id="227" name="Constant_603" type="Const" version="opset1">
			<data element_type="i64" shape="4" offset="226728" size="32" />
			<output>
				<port id="0" precision="I64">
					<dim>4</dim>
				</port>
			</output>
		</layer>
		<layer id="228" name="/neural_model/separate_blocks.0/Transpose_5" type="Transpose" version="opset1">
			<input>
				<port id="0" precision="FP32">
					<dim>1</dim>
					<dim>64</dim>
					<dim>8</dim>
					<dim>162</dim>
				</port>
				<port id="1" precision="I64">
					<dim>4</dim>
				</port>
			</input>
			<output>
				<port id="2" precision="FP32" names="/neural_model/separate_blocks.0/Transpose_5_output_0">
					<dim>1</dim>
					<dim>162</dim>
					<dim>8</dim>
					<dim>64</dim>
				</port>
			</output>
		</layer>
		<layer id="229" name="_v_1740" type="Const" version="opset1">
			<data element_type="i64" shape="3" offset="1520806" size="24" />
			<rt_info>
				<attribute name="precise" version="0" />
			</rt_info>
			<output>
				<port id="0" precision="I64" names="_v_1740">
					<dim>3</dim>
				</port>
			</output>
		</layer>
		<layer id="230" name="/neural_model/separate_blocks.0/Reshape_5" type="Reshape" version="opset1">
			<data special_zero="true" />
			<input>
				<port id="0" precision="FP32">
					<dim>1</dim>
					<dim>162</dim>
					<dim>8</dim>
					<dim>64</dim>
				</port>
				<port id="1" precision="I64">
					<dim>3</dim>
				</port>
			</input>
			<output>
				<port id="2" precision="FP32" names="/neural_model/separate_blocks.0/Reshape_5_output_0">
					<dim>162</dim>
					<dim>8</dim>
					<dim>64</dim>
				</port>
			</output>
		</layer>
		<layer id="231" name="Constant_509" type="Const" version="opset1">
			<data element_type="i64" shape="" offset="226696" size="8" />
			<output>
				<port id="0" precision="I64" />
			</output>
		</layer>
		<layer id="232" name="/neural_model/Gather" type="Gather" version="opset8">
			<data batch_dims="0" />
			<input>
				<port id="0" precision="FP32">
					<dim>2</dim>
					<dim>1</dim>
					<dim>162</dim>
					<dim>192</dim>
				</port>
				<port id="1" precision="I64" />
				<port id="2" precision="I64" />
			</input>
			<output>
				<port id="3" precision="FP32" names="/neural_model/Gather_output_0">
					<dim>1</dim>
					<dim>162</dim>
					<dim>192</dim>
				</port>
			</output>
		</layer>
		<layer id="233" name="Constant_628" type="Const" version="opset1">
			<data element_type="i64" shape="3" offset="229384" size="24" />
			<output>
				<port id="0" precision="I64">
					<dim>3</dim>
				</port>
			</output>
		</layer>
		<layer id="234" name="Transpose_629" type="Transpose" version="opset1">
			<input>
				<port id="0" precision="FP32">
					<dim>1</dim>
					<dim>162</dim>
					<dim>192</dim>
				</port>
				<port id="1" precision="I64">
					<dim>3</dim>
				</port>
			</input>
			<output>
				<port id="2" precision="FP32">
					<dim>162</dim>
					<dim>1</dim>
					<dim>192</dim>
				</port>
			</output>
		</layer>
		<layer id="235" name="ShapeOf_611" type="ShapeOf" version="opset3">
			<data output_type="i64" />
			<input>
				<port id="0" precision="FP32">
					<dim>162</dim>
					<dim>8</dim>
					<dim>64</dim>
				</port>
			</input>
			<output>
				<port id="1" precision="I64">
					<dim>3</dim>
				</port>
			</output>
		</layer>
		<layer id="236" name="Constant_615" type="Const" version="opset1">
			<data element_type="i32" shape="1" offset="288462" size="4" />
			<output>
				<port id="0" precision="I32">
					<dim>1</dim>
				</port>
			</output>
		</layer>
		<layer id="237" name="Constant_612" type="Const" version="opset1">
			<data element_type="i32" shape="1" offset="288466" size="4" />
			<rt_info>
				<attribute name="precise" version="0" />
			</rt_info>
			<output>
				<port id="0" precision="I32">
					<dim>1</dim>
				</port>
			</output>
		</layer>
		<layer id="238" name="Gather_616" type="Gather" version="opset8">
			<data batch_dims="0" />
			<input>
				<port id="0" precision="I64">
					<dim>3</dim>
				</port>
				<port id="1" precision="I32">
					<dim>1</dim>
				</port>
				<port id="2" precision="I32">
					<dim>1</dim>
				</port>
			</input>
			<output>
				<port id="3" precision="I64">
					<dim>1</dim>
				</port>
			</output>
		</layer>
		<layer id="239" name="Constant_613" type="Const" version="opset1">
			<data element_type="i32" shape="1" offset="288466" size="4" />
			<rt_info>
				<attribute name="precise" version="0" />
			</rt_info>
			<output>
				<port id="0" precision="I32">
					<dim>1</dim>
				</port>
			</output>
		</layer>
		<layer id="240" name="Gather_614" type="Gather" version="opset8">
			<data batch_dims="0" />
			<input>
				<port id="0" precision="I64">
					<dim>3</dim>
				</port>
				<port id="1" precision="I32">
					<dim>1</dim>
				</port>
				<port id="2" precision="I32">
					<dim>1</dim>
				</port>
			</input>
			<output>
				<port id="3" precision="I64">
					<dim>1</dim>
				</port>
			</output>
		</layer>
		<layer id="241" name="Broadcast_625" type="Broadcast" version="opset3">
			<data mode="numpy" />
			<input>
				<port id="0" precision="I64">
					<dim>1</dim>
				</port>
				<port id="1" precision="I64">
					<dim>1</dim>
				</port>
			</input>
			<output>
				<port id="2" precision="I64">
					<dim>162</dim>
				</port>
			</output>
		</layer>
		<layer id="242" name="onnx::GRU_4056_compressed" type="Const" version="opset1">
			<data element_type="f16" shape="1, 576, 64" offset="1520830" size="73728" />
			<output>
				<port id="0" precision="FP16" names="onnx::GRU_4056">
					<dim>1</dim>
					<dim>576</dim>
					<dim>64</dim>
				</port>
			</output>
		</layer>
		<layer id="243" name="onnx::GRU_4056" type="Convert" version="opset1">
			<data destination_type="f32" />
			<rt_info>
				<attribute name="decompression" version="0" />
			</rt_info>
			<input>
				<port id="0" precision="FP16">
					<dim>1</dim>
					<dim>576</dim>
					<dim>64</dim>
				</port>
			</input>
			<output>
				<port id="1" precision="FP32">
					<dim>1</dim>
					<dim>576</dim>
					<dim>64</dim>
				</port>
			</output>
		</layer>
		<layer id="244" name="onnx::GRU_4057_compressed" type="Const" version="opset1">
			<data element_type="f16" shape="1, 576, 192" offset="1594558" size="221184" />
			<output>
				<port id="0" precision="FP16" names="onnx::GRU_4057">
					<dim>1</dim>
					<dim>576</dim>
					<dim>192</dim>
				</port>
			</output>
		</layer>
		<layer id="245" name="onnx::GRU_4057" type="Convert" version="opset1">
			<data destination_type="f32" />
			<rt_info>
				<attribute name="decompression" version="0" />
			</rt_info>
			<input>
				<port id="0" precision="FP16">
					<dim>1</dim>
					<dim>576</dim>
					<dim>192</dim>
				</port>
			</input>
			<output>
				<port id="1" precision="FP32">
					<dim>1</dim>
					<dim>576</dim>
					<dim>192</dim>
				</port>
			</output>
		</layer>
		<layer id="246" name="Concat_635_compressed" type="Const" version="opset1">
			<data element_type="f16" shape="1, 768" offset="1815742" size="1536" />
			<output>
				<port id="0" precision="FP16">
					<dim>1</dim>
					<dim>768</dim>
				</port>
			</output>
		</layer>
		<layer id="247" name="Concat_635" type="Convert" version="opset1">
			<data destination_type="f32" />
			<rt_info>
				<attribute name="decompression" version="0" />
			</rt_info>
			<input>
				<port id="0" precision="FP16">
					<dim>1</dim>
					<dim>768</dim>
				</port>
			</input>
			<output>
				<port id="1" precision="FP32">
					<dim>1</dim>
					<dim>768</dim>
				</port>
			</output>
		</layer>
		<layer id="248" name="GRUSequence_636" type="GRUSequence" version="opset5">
			<data direction="forward" linear_before_reset="true" hidden_size="192" activations="sigmoid, tanh" activations_alpha="" activations_beta="" clip="0" />
			<input>
				<port id="0" precision="FP32">
					<dim>162</dim>
					<dim>8</dim>
					<dim>64</dim>
				</port>
				<port id="1" precision="FP32">
					<dim>162</dim>
					<dim>1</dim>
					<dim>192</dim>
				</port>
				<port id="2" precision="I64">
					<dim>162</dim>
				</port>
				<port id="3" precision="FP32">
					<dim>1</dim>
					<dim>576</dim>
					<dim>64</dim>
				</port>
				<port id="4" precision="FP32">
					<dim>1</dim>
					<dim>576</dim>
					<dim>192</dim>
				</port>
				<port id="5" precision="FP32">
					<dim>1</dim>
					<dim>768</dim>
				</port>
			</input>
			<output>
				<port id="6" precision="FP32">
					<dim>162</dim>
					<dim>1</dim>
					<dim>8</dim>
					<dim>192</dim>
				</port>
				<port id="7" precision="FP32">
					<dim>162</dim>
					<dim>1</dim>
					<dim>192</dim>
				</port>
			</output>
		</layer>
		<layer id="249" name="Constant_4700" type="Const" version="opset1">
			<data element_type="i64" shape="1" offset="20608" size="8" />
			<output>
				<port id="0" precision="I64">
					<dim>1</dim>
				</port>
			</output>
		</layer>
		<layer id="250" name="Squeeze_4701" type="Squeeze" version="opset1">
			<input>
				<port id="0" precision="FP32">
					<dim>162</dim>
					<dim>1</dim>
					<dim>8</dim>
					<dim>192</dim>
				</port>
				<port id="1" precision="I64">
					<dim>1</dim>
				</port>
			</input>
			<output>
				<port id="2" precision="FP32">
					<dim>162</dim>
					<dim>8</dim>
					<dim>192</dim>
				</port>
			</output>
		</layer>
		<layer id="251" name="Constant_4704" type="Const" version="opset1">
			<data element_type="i64" shape="3" offset="282294" size="24" />
			<output>
				<port id="0" precision="I64">
					<dim>3</dim>
				</port>
			</output>
		</layer>
		<layer id="252" name="/neural_model/separate_blocks.0/Transpose_6" type="Transpose" version="opset1">
			<input>
				<port id="0" precision="FP32">
					<dim>162</dim>
					<dim>8</dim>
					<dim>192</dim>
				</port>
				<port id="1" precision="I64">
					<dim>3</dim>
				</port>
			</input>
			<output>
				<port id="2" precision="FP32" names="/neural_model/separate_blocks.0/Transpose_6_output_0">
					<dim>162</dim>
					<dim>192</dim>
					<dim>8</dim>
				</port>
			</output>
		</layer>
		<layer id="253" name="neural_model.separate_blocks.0.inter_linear.weight_compressed" type="Const" version="opset1">
			<data element_type="f16" shape="64, 192, 1" offset="1817278" size="24576" />
			<output>
				<port id="0" precision="FP16" names="neural_model.separate_blocks.0.inter_linear.weight">
					<dim>64</dim>
					<dim>192</dim>
					<dim>1</dim>
				</port>
			</output>
		</layer>
		<layer id="254" name="neural_model.separate_blocks.0.inter_linear.weight" type="Convert" version="opset1">
			<data destination_type="f32" />
			<rt_info>
				<attribute name="decompression" version="0" />
			</rt_info>
			<input>
				<port id="0" precision="FP16">
					<dim>64</dim>
					<dim>192</dim>
					<dim>1</dim>
				</port>
			</input>
			<output>
				<port id="1" precision="FP32">
					<dim>64</dim>
					<dim>192</dim>
					<dim>1</dim>
				</port>
			</output>
		</layer>
		<layer id="255" name="/neural_model/separate_blocks.0/inter_linear/Conv/WithoutBiases" type="Convolution" version="opset1">
			<data strides="1" dilations="1" pads_begin="0" pads_end="0" auto_pad="explicit" />
			<input>
				<port id="0" precision="FP32">
					<dim>162</dim>
					<dim>192</dim>
					<dim>8</dim>
				</port>
				<port id="1" precision="FP32">
					<dim>64</dim>
					<dim>192</dim>
					<dim>1</dim>
				</port>
			</input>
			<output>
				<port id="2" precision="FP32">
					<dim>162</dim>
					<dim>64</dim>
					<dim>8</dim>
				</port>
			</output>
		</layer>
		<layer id="256" name="Reshape_655_compressed" type="Const" version="opset1">
			<data element_type="f16" shape="1, 64, 1" offset="1841854" size="128" />
			<output>
				<port id="0" precision="FP16">
					<dim>1</dim>
					<dim>64</dim>
					<dim>1</dim>
				</port>
			</output>
		</layer>
		<layer id="257" name="Reshape_655" type="Convert" version="opset1">
			<data destination_type="f32" />
			<rt_info>
				<attribute name="decompression" version="0" />
			</rt_info>
			<input>
				<port id="0" precision="FP16">
					<dim>1</dim>
					<dim>64</dim>
					<dim>1</dim>
				</port>
			</input>
			<output>
				<port id="1" precision="FP32">
					<dim>1</dim>
					<dim>64</dim>
					<dim>1</dim>
				</port>
			</output>
		</layer>
		<layer id="258" name="/neural_model/separate_blocks.0/inter_linear/Conv" type="Add" version="opset1">
			<data auto_broadcast="numpy" />
			<input>
				<port id="0" precision="FP32">
					<dim>162</dim>
					<dim>64</dim>
					<dim>8</dim>
				</port>
				<port id="1" precision="FP32">
					<dim>1</dim>
					<dim>64</dim>
					<dim>1</dim>
				</port>
			</input>
			<output>
				<port id="2" precision="FP32" names="/neural_model/separate_blocks.0/inter_linear/Conv_output_0">
					<dim>162</dim>
					<dim>64</dim>
					<dim>8</dim>
				</port>
			</output>
		</layer>
		<layer id="259" name="Constant_657" type="Const" version="opset1">
			<data element_type="i64" shape="3" offset="282294" size="24" />
			<output>
				<port id="0" precision="I64">
					<dim>3</dim>
				</port>
			</output>
		</layer>
		<layer id="260" name="/neural_model/separate_blocks.0/Transpose_7" type="Transpose" version="opset1">
			<input>
				<port id="0" precision="FP32">
					<dim>162</dim>
					<dim>64</dim>
					<dim>8</dim>
				</port>
				<port id="1" precision="I64">
					<dim>3</dim>
				</port>
			</input>
			<output>
				<port id="2" precision="FP32" names="/neural_model/separate_blocks.0/Transpose_7_output_0">
					<dim>162</dim>
					<dim>8</dim>
					<dim>64</dim>
				</port>
			</output>
		</layer>
		<layer id="261" name="_v_1742" type="Const" version="opset1">
			<data element_type="i64" shape="4" offset="1841982" size="32" />
			<rt_info>
				<attribute name="precise" version="0" />
			</rt_info>
			<output>
				<port id="0" precision="I64" names="_v_1742">
					<dim>4</dim>
				</port>
			</output>
		</layer>
		<layer id="262" name="/neural_model/separate_blocks.0/Reshape_6" type="Reshape" version="opset1">
			<data special_zero="true" />
			<input>
				<port id="0" precision="FP32">
					<dim>162</dim>
					<dim>8</dim>
					<dim>64</dim>
				</port>
				<port id="1" precision="I64">
					<dim>4</dim>
				</port>
			</input>
			<output>
				<port id="2" precision="FP32" names="/neural_model/separate_blocks.0/Reshape_6_output_0">
					<dim>1</dim>
					<dim>162</dim>
					<dim>8</dim>
					<dim>64</dim>
				</port>
			</output>
		</layer>
		<layer id="263" name="Constant_660" type="Const" version="opset1">
			<data element_type="i64" shape="4" offset="226728" size="32" />
			<output>
				<port id="0" precision="I64">
					<dim>4</dim>
				</port>
			</output>
		</layer>
		<layer id="264" name="/neural_model/separate_blocks.0/Transpose_8" type="Transpose" version="opset1">
			<input>
				<port id="0" precision="FP32">
					<dim>1</dim>
					<dim>162</dim>
					<dim>8</dim>
					<dim>64</dim>
				</port>
				<port id="1" precision="I64">
					<dim>4</dim>
				</port>
			</input>
			<output>
				<port id="2" precision="FP32" names="/neural_model/separate_blocks.0/Transpose_8_output_0">
					<dim>1</dim>
					<dim>64</dim>
					<dim>8</dim>
					<dim>162</dim>
				</port>
			</output>
		</layer>
		<layer id="265" name="/neural_model/separate_blocks.0/Add_5" type="Add" version="opset1">
			<data auto_broadcast="numpy" />
			<input>
				<port id="0" precision="FP32">
					<dim>1</dim>
					<dim>64</dim>
					<dim>8</dim>
					<dim>162</dim>
				</port>
				<port id="1" precision="FP32">
					<dim>1</dim>
					<dim>64</dim>
					<dim>8</dim>
					<dim>162</dim>
				</port>
			</input>
			<output>
				<port id="2" precision="FP32" names="/neural_model/separate_blocks.0/Add_5_output_0">
					<dim>1</dim>
					<dim>64</dim>
					<dim>8</dim>
					<dim>162</dim>
				</port>
			</output>
		</layer>
		<layer id="266" name="_v_4821" type="Const" version="opset1">
			<data element_type="i64" shape="2" offset="1842014" size="16" />
			<output>
				<port id="0" precision="I64" names="_v_4821">
					<dim>2</dim>
				</port>
			</output>
		</layer>
		<layer id="267" name="_v_4822" type="Const" version="opset1">
			<data element_type="i64" shape="2" offset="1842030" size="16" />
			<output>
				<port id="0" precision="I64" names="_v_4822">
					<dim>2</dim>
				</port>
			</output>
		</layer>
		<layer id="268" name="_v_4824" type="Const" version="opset1">
			<data element_type="i64" shape="2" offset="1842046" size="16" />
			<output>
				<port id="0" precision="I64" names="_v_4824">
					<dim>2</dim>
				</port>
			</output>
		</layer>
		<layer id="269" name="_v_4823" type="Const" version="opset1">
			<data element_type="i64" shape="2" offset="1842062" size="16" />
			<output>
				<port id="0" precision="I64" names="_v_4823">
					<dim>2</dim>
				</port>
			</output>
		</layer>
		<layer id="270" name="_v_4825" type="Slice" version="opset8">
			<input>
				<port id="0" precision="FP32">
					<dim>1</dim>
					<dim>64</dim>
					<dim>8</dim>
					<dim>162</dim>
				</port>
				<port id="1" precision="I64">
					<dim>2</dim>
				</port>
				<port id="2" precision="I64">
					<dim>2</dim>
				</port>
				<port id="3" precision="I64">
					<dim>2</dim>
				</port>
				<port id="4" precision="I64">
					<dim>2</dim>
				</port>
			</input>
			<output>
				<port id="5" precision="FP32" names="_v_4825">
					<dim>1</dim>
					<dim>64</dim>
					<dim>8</dim>
					<dim>161</dim>
				</port>
			</output>
		</layer>
		<layer id="271" name="neural_model.separate_blocks.0.attn_conv_Q_0.0.weight_compressed" type="Const" version="opset1">
			<data element_type="f16" shape="8, 64, 1, 1" offset="1842078" size="1024" />
			<output>
				<port id="0" precision="FP16" names="neural_model.separate_blocks.0.attn_conv_Q_0.0.weight">
					<dim>8</dim>
					<dim>64</dim>
					<dim>1</dim>
					<dim>1</dim>
				</port>
			</output>
		</layer>
		<layer id="272" name="neural_model.separate_blocks.0.attn_conv_Q_0.0.weight" type="Convert" version="opset1">
			<data destination_type="f32" />
			<rt_info>
				<attribute name="decompression" version="0" />
			</rt_info>
			<input>
				<port id="0" precision="FP16">
					<dim>8</dim>
					<dim>64</dim>
					<dim>1</dim>
					<dim>1</dim>
				</port>
			</input>
			<output>
				<port id="1" precision="FP32">
					<dim>8</dim>
					<dim>64</dim>
					<dim>1</dim>
					<dim>1</dim>
				</port>
			</output>
		</layer>
		<layer id="273" name="/neural_model/separate_blocks.0/attn_conv_Q_0/attn_conv_Q_0.0/Conv/WithoutBiases" type="Convolution" version="opset1">
			<data strides="1, 1" dilations="1, 1" pads_begin="0, 0" pads_end="0, 0" auto_pad="explicit" />
			<input>
				<port id="0" precision="FP32">
					<dim>1</dim>
					<dim>64</dim>
					<dim>8</dim>
					<dim>161</dim>
				</port>
				<port id="1" precision="FP32">
					<dim>8</dim>
					<dim>64</dim>
					<dim>1</dim>
					<dim>1</dim>
				</port>
			</input>
			<output>
				<port id="2" precision="FP32">
					<dim>1</dim>
					<dim>8</dim>
					<dim>8</dim>
					<dim>161</dim>
				</port>
			</output>
		</layer>
		<layer id="274" name="Reshape_675_compressed" type="Const" version="opset1">
			<data element_type="f16" shape="1, 8, 1, 1" offset="1843102" size="16" />
			<output>
				<port id="0" precision="FP16">
					<dim>1</dim>
					<dim>8</dim>
					<dim>1</dim>
					<dim>1</dim>
				</port>
			</output>
		</layer>
		<layer id="275" name="Reshape_675" type="Convert" version="opset1">
			<data destination_type="f32" />
			<rt_info>
				<attribute name="decompression" version="0" />
			</rt_info>
			<input>
				<port id="0" precision="FP16">
					<dim>1</dim>
					<dim>8</dim>
					<dim>1</dim>
					<dim>1</dim>
				</port>
			</input>
			<output>
				<port id="1" precision="FP32">
					<dim>1</dim>
					<dim>8</dim>
					<dim>1</dim>
					<dim>1</dim>
				</port>
			</output>
		</layer>
		<layer id="276" name="/neural_model/separate_blocks.0/attn_conv_Q_0/attn_conv_Q_0.0/Conv" type="Add" version="opset1">
			<data auto_broadcast="numpy" />
			<input>
				<port id="0" precision="FP32">
					<dim>1</dim>
					<dim>8</dim>
					<dim>8</dim>
					<dim>161</dim>
				</port>
				<port id="1" precision="FP32">
					<dim>1</dim>
					<dim>8</dim>
					<dim>1</dim>
					<dim>1</dim>
				</port>
			</input>
			<output>
				<port id="2" precision="FP32" names="/neural_model/separate_blocks.0/attn_conv_Q_0/attn_conv_Q_0.0/Conv_output_0">
					<dim>1</dim>
					<dim>8</dim>
					<dim>8</dim>
					<dim>161</dim>
				</port>
			</output>
		</layer>
		<layer id="277" name="onnx::PRelu_4067_compressed" type="Const" version="opset1">
			<data element_type="f16" shape="1, 1, 1" offset="1843118" size="2" />
			<output>
				<port id="0" precision="FP16" names="onnx::PRelu_4067">
					<dim>1</dim>
					<dim>1</dim>
					<dim>1</dim>
				</port>
			</output>
		</layer>
		<layer id="278" name="onnx::PRelu_4067" type="Convert" version="opset1">
			<data destination_type="f32" />
			<rt_info>
				<attribute name="decompression" version="0" />
			</rt_info>
			<input>
				<port id="0" precision="FP16">
					<dim>1</dim>
					<dim>1</dim>
					<dim>1</dim>
				</port>
			</input>
			<output>
				<port id="1" precision="FP32">
					<dim>1</dim>
					<dim>1</dim>
					<dim>1</dim>
				</port>
			</output>
		</layer>
		<layer id="279" name="/neural_model/separate_blocks.0/attn_conv_Q_0/attn_conv_Q_0.1/PRelu" type="PReLU" version="opset1">
			<input>
				<port id="0" precision="FP32">
					<dim>1</dim>
					<dim>8</dim>
					<dim>8</dim>
					<dim>161</dim>
				</port>
				<port id="1" precision="FP32">
					<dim>1</dim>
					<dim>1</dim>
					<dim>1</dim>
				</port>
			</input>
			<output>
				<port id="2" precision="FP32" names="/neural_model/separate_blocks.0/attn_conv_Q_0/attn_conv_Q_0.1/PRelu_output_0">
					<dim>1</dim>
					<dim>8</dim>
					<dim>8</dim>
					<dim>161</dim>
				</port>
			</output>
		</layer>
		<layer id="280" name="Constant_678" type="Const" version="opset1">
			<data element_type="i64" shape="2" offset="1843120" size="16" />
			<output>
				<port id="0" precision="I64">
					<dim>2</dim>
				</port>
			</output>
		</layer>
		<layer id="281" name="/neural_model/separate_blocks.0/attn_conv_Q_0/attn_conv_Q_0.2/ReduceMean" type="ReduceMean" version="opset1">
			<data keep_dims="true" />
			<input>
				<port id="0" precision="FP32">
					<dim>1</dim>
					<dim>8</dim>
					<dim>8</dim>
					<dim>161</dim>
				</port>
				<port id="1" precision="I64">
					<dim>2</dim>
				</port>
			</input>
			<output>
				<port id="2" precision="FP32" names="/neural_model/separate_blocks.0/attn_conv_Q_0/attn_conv_Q_0.2/ReduceMean_output_0">
					<dim>1</dim>
					<dim>1</dim>
					<dim>8</dim>
					<dim>1</dim>
				</port>
			</output>
		</layer>
		<layer id="282" name="/neural_model/separate_blocks.0/attn_conv_Q_0/attn_conv_Q_0.2/Sub" type="Subtract" version="opset1">
			<data auto_broadcast="numpy" />
			<input>
				<port id="0" precision="FP32">
					<dim>1</dim>
					<dim>8</dim>
					<dim>8</dim>
					<dim>161</dim>
				</port>
				<port id="1" precision="FP32">
					<dim>1</dim>
					<dim>1</dim>
					<dim>8</dim>
					<dim>1</dim>
				</port>
			</input>
			<output>
				<port id="2" precision="FP32" names="/neural_model/separate_blocks.0/attn_conv_Q_0/attn_conv_Q_0.2/Sub_output_0">
					<dim>1</dim>
					<dim>8</dim>
					<dim>8</dim>
					<dim>161</dim>
				</port>
			</output>
		</layer>
		<layer id="283" name="/neural_model/separate_blocks.0/attn_conv_Q_0/attn_conv_Q_0.2/Mul" type="Multiply" version="opset1">
			<data auto_broadcast="numpy" />
			<input>
				<port id="0" precision="FP32">
					<dim>1</dim>
					<dim>8</dim>
					<dim>8</dim>
					<dim>161</dim>
				</port>
				<port id="1" precision="FP32">
					<dim>1</dim>
					<dim>8</dim>
					<dim>8</dim>
					<dim>161</dim>
				</port>
			</input>
			<output>
				<port id="2" precision="FP32" names="/neural_model/separate_blocks.0/attn_conv_Q_0/attn_conv_Q_0.2/Mul_output_0">
					<dim>1</dim>
					<dim>8</dim>
					<dim>8</dim>
					<dim>161</dim>
				</port>
			</output>
		</layer>
		<layer id="284" name="Constant_682" type="Const" version="opset1">
			<data element_type="i64" shape="2" offset="1843120" size="16" />
			<output>
				<port id="0" precision="I64">
					<dim>2</dim>
				</port>
			</output>
		</layer>
		<layer id="285" name="/neural_model/separate_blocks.0/attn_conv_Q_0/attn_conv_Q_0.2/ReduceMean_2" type="ReduceMean" version="opset1">
			<data keep_dims="true" />
			<input>
				<port id="0" precision="FP32">
					<dim>1</dim>
					<dim>8</dim>
					<dim>8</dim>
					<dim>161</dim>
				</port>
				<port id="1" precision="I64">
					<dim>2</dim>
				</port>
			</input>
			<output>
				<port id="2" precision="FP32" names="/neural_model/separate_blocks.0/attn_conv_Q_0/attn_conv_Q_0.2/ReduceMean_2_output_0">
					<dim>1</dim>
					<dim>1</dim>
					<dim>8</dim>
					<dim>1</dim>
				</port>
			</output>
		</layer>
		<layer id="286" name="Constant_5715_compressed" type="Const" version="opset1">
			<data element_type="f16" shape="1, 1, 1, 1" offset="279388" size="2" />
			<output>
				<port id="0" precision="FP16">
					<dim>1</dim>
					<dim>1</dim>
					<dim>1</dim>
					<dim>1</dim>
				</port>
			</output>
		</layer>
		<layer id="287" name="Constant_5715" type="Convert" version="opset1">
			<data destination_type="f32" />
			<rt_info>
				<attribute name="decompression" version="0" />
			</rt_info>
			<input>
				<port id="0" precision="FP16">
					<dim>1</dim>
					<dim>1</dim>
					<dim>1</dim>
					<dim>1</dim>
				</port>
			</input>
			<output>
				<port id="1" precision="FP32">
					<dim>1</dim>
					<dim>1</dim>
					<dim>1</dim>
					<dim>1</dim>
				</port>
			</output>
		</layer>
		<layer id="288" name="/neural_model/separate_blocks.0/attn_conv_Q_0/attn_conv_Q_0.2/Add" type="Add" version="opset1">
			<data auto_broadcast="numpy" />
			<input>
				<port id="0" precision="FP32">
					<dim>1</dim>
					<dim>1</dim>
					<dim>8</dim>
					<dim>1</dim>
				</port>
				<port id="1" precision="FP32">
					<dim>1</dim>
					<dim>1</dim>
					<dim>1</dim>
					<dim>1</dim>
				</port>
			</input>
			<output>
				<port id="2" precision="FP32" names="/neural_model/separate_blocks.0/attn_conv_Q_0/attn_conv_Q_0.2/Add_output_0">
					<dim>1</dim>
					<dim>1</dim>
					<dim>8</dim>
					<dim>1</dim>
				</port>
			</output>
		</layer>
		<layer id="289" name="/neural_model/separate_blocks.0/attn_conv_Q_0/attn_conv_Q_0.2/Sqrt" type="Sqrt" version="opset1">
			<input>
				<port id="0" precision="FP32">
					<dim>1</dim>
					<dim>1</dim>
					<dim>8</dim>
					<dim>1</dim>
				</port>
			</input>
			<output>
				<port id="1" precision="FP32" names="/neural_model/separate_blocks.0/attn_conv_Q_0/attn_conv_Q_0.2/Sqrt_output_0">
					<dim>1</dim>
					<dim>1</dim>
					<dim>8</dim>
					<dim>1</dim>
				</port>
			</output>
		</layer>
		<layer id="290" name="Constant_5716_compressed" type="Const" version="opset1">
			<data element_type="f16" shape="1, 1, 1, 1" offset="279388" size="2" />
			<output>
				<port id="0" precision="FP16">
					<dim>1</dim>
					<dim>1</dim>
					<dim>1</dim>
					<dim>1</dim>
				</port>
			</output>
		</layer>
		<layer id="291" name="Constant_5716" type="Convert" version="opset1">
			<data destination_type="f32" />
			<rt_info>
				<attribute name="decompression" version="0" />
			</rt_info>
			<input>
				<port id="0" precision="FP16">
					<dim>1</dim>
					<dim>1</dim>
					<dim>1</dim>
					<dim>1</dim>
				</port>
			</input>
			<output>
				<port id="1" precision="FP32">
					<dim>1</dim>
					<dim>1</dim>
					<dim>1</dim>
					<dim>1</dim>
				</port>
			</output>
		</layer>
		<layer id="292" name="/neural_model/separate_blocks.0/attn_conv_Q_0/attn_conv_Q_0.2/Add_1" type="Add" version="opset1">
			<data auto_broadcast="numpy" />
			<input>
				<port id="0" precision="FP32">
					<dim>1</dim>
					<dim>1</dim>
					<dim>8</dim>
					<dim>1</dim>
				</port>
				<port id="1" precision="FP32">
					<dim>1</dim>
					<dim>1</dim>
					<dim>1</dim>
					<dim>1</dim>
				</port>
			</input>
			<output>
				<port id="2" precision="FP32" names="/neural_model/separate_blocks.0/attn_conv_Q_0/attn_conv_Q_0.2/Add_1_output_0">
					<dim>1</dim>
					<dim>1</dim>
					<dim>8</dim>
					<dim>1</dim>
				</port>
			</output>
		</layer>
		<layer id="293" name="/neural_model/separate_blocks.0/attn_conv_Q_0/attn_conv_Q_0.2/Div" type="Divide" version="opset1">
			<data auto_broadcast="numpy" m_pythondiv="true" />
			<input>
				<port id="0" precision="FP32">
					<dim>1</dim>
					<dim>8</dim>
					<dim>8</dim>
					<dim>161</dim>
				</port>
				<port id="1" precision="FP32">
					<dim>1</dim>
					<dim>1</dim>
					<dim>8</dim>
					<dim>1</dim>
				</port>
			</input>
			<output>
				<port id="2" precision="FP32" names="/neural_model/separate_blocks.0/attn_conv_Q_0/attn_conv_Q_0.2/Div_output_0">
					<dim>1</dim>
					<dim>8</dim>
					<dim>8</dim>
					<dim>161</dim>
				</port>
			</output>
		</layer>
		<layer id="294" name="neural_model.separate_blocks.0.attn_conv_Q_0.2.gamma_compressed" type="Const" version="opset1">
			<data element_type="f16" shape="1, 8, 1, 161" offset="1843136" size="2576" />
			<output>
				<port id="0" precision="FP16" names="neural_model.separate_blocks.0.attn_conv_Q_0.2.gamma">
					<dim>1</dim>
					<dim>8</dim>
					<dim>1</dim>
					<dim>161</dim>
				</port>
			</output>
		</layer>
		<layer id="295" name="neural_model.separate_blocks.0.attn_conv_Q_0.2.gamma" type="Convert" version="opset1">
			<data destination_type="f32" />
			<rt_info>
				<attribute name="decompression" version="0" />
			</rt_info>
			<input>
				<port id="0" precision="FP16">
					<dim>1</dim>
					<dim>8</dim>
					<dim>1</dim>
					<dim>161</dim>
				</port>
			</input>
			<output>
				<port id="1" precision="FP32">
					<dim>1</dim>
					<dim>8</dim>
					<dim>1</dim>
					<dim>161</dim>
				</port>
			</output>
		</layer>
		<layer id="296" name="/neural_model/separate_blocks.0/attn_conv_Q_0/attn_conv_Q_0.2/Mul_1" type="Multiply" version="opset1">
			<data auto_broadcast="numpy" />
			<input>
				<port id="0" precision="FP32">
					<dim>1</dim>
					<dim>8</dim>
					<dim>8</dim>
					<dim>161</dim>
				</port>
				<port id="1" precision="FP32">
					<dim>1</dim>
					<dim>8</dim>
					<dim>1</dim>
					<dim>161</dim>
				</port>
			</input>
			<output>
				<port id="2" precision="FP32" names="/neural_model/separate_blocks.0/attn_conv_Q_0/attn_conv_Q_0.2/Mul_1_output_0">
					<dim>1</dim>
					<dim>8</dim>
					<dim>8</dim>
					<dim>161</dim>
				</port>
			</output>
		</layer>
		<layer id="297" name="neural_model.separate_blocks.0.attn_conv_Q_0.2.beta_compressed" type="Const" version="opset1">
			<data element_type="f16" shape="1, 8, 1, 161" offset="1845712" size="2576" />
			<output>
				<port id="0" precision="FP16" names="neural_model.separate_blocks.0.attn_conv_Q_0.2.beta">
					<dim>1</dim>
					<dim>8</dim>
					<dim>1</dim>
					<dim>161</dim>
				</port>
			</output>
		</layer>
		<layer id="298" name="neural_model.separate_blocks.0.attn_conv_Q_0.2.beta" type="Convert" version="opset1">
			<data destination_type="f32" />
			<rt_info>
				<attribute name="decompression" version="0" />
			</rt_info>
			<input>
				<port id="0" precision="FP16">
					<dim>1</dim>
					<dim>8</dim>
					<dim>1</dim>
					<dim>161</dim>
				</port>
			</input>
			<output>
				<port id="1" precision="FP32">
					<dim>1</dim>
					<dim>8</dim>
					<dim>1</dim>
					<dim>161</dim>
				</port>
			</output>
		</layer>
		<layer id="299" name="/neural_model/separate_blocks.0/attn_conv_Q_0/attn_conv_Q_0.2/Add_2" type="Add" version="opset1">
			<data auto_broadcast="numpy" />
			<input>
				<port id="0" precision="FP32">
					<dim>1</dim>
					<dim>8</dim>
					<dim>8</dim>
					<dim>161</dim>
				</port>
				<port id="1" precision="FP32">
					<dim>1</dim>
					<dim>8</dim>
					<dim>1</dim>
					<dim>161</dim>
				</port>
			</input>
			<output>
				<port id="2" precision="FP32" names="/neural_model/separate_blocks.0/attn_conv_Q_0/attn_conv_Q_0.2/Add_2_output_0">
					<dim>1</dim>
					<dim>8</dim>
					<dim>8</dim>
					<dim>161</dim>
				</port>
			</output>
		</layer>
		<layer id="300" name="neural_model.separate_blocks.0.attn_conv_Q_1.0.weight_compressed" type="Const" version="opset1">
			<data element_type="f16" shape="8, 64, 1, 1" offset="1848288" size="1024" />
			<output>
				<port id="0" precision="FP16" names="neural_model.separate_blocks.0.attn_conv_Q_1.0.weight">
					<dim>8</dim>
					<dim>64</dim>
					<dim>1</dim>
					<dim>1</dim>
				</port>
			</output>
		</layer>
		<layer id="301" name="neural_model.separate_blocks.0.attn_conv_Q_1.0.weight" type="Convert" version="opset1">
			<data destination_type="f32" />
			<rt_info>
				<attribute name="decompression" version="0" />
			</rt_info>
			<input>
				<port id="0" precision="FP16">
					<dim>8</dim>
					<dim>64</dim>
					<dim>1</dim>
					<dim>1</dim>
				</port>
			</input>
			<output>
				<port id="1" precision="FP32">
					<dim>8</dim>
					<dim>64</dim>
					<dim>1</dim>
					<dim>1</dim>
				</port>
			</output>
		</layer>
		<layer id="302" name="/neural_model/separate_blocks.0/attn_conv_Q_1/attn_conv_Q_1.0/Conv/WithoutBiases" type="Convolution" version="opset1">
			<data strides="1, 1" dilations="1, 1" pads_begin="0, 0" pads_end="0, 0" auto_pad="explicit" />
			<input>
				<port id="0" precision="FP32">
					<dim>1</dim>
					<dim>64</dim>
					<dim>8</dim>
					<dim>161</dim>
				</port>
				<port id="1" precision="FP32">
					<dim>8</dim>
					<dim>64</dim>
					<dim>1</dim>
					<dim>1</dim>
				</port>
			</input>
			<output>
				<port id="2" precision="FP32">
					<dim>1</dim>
					<dim>8</dim>
					<dim>8</dim>
					<dim>161</dim>
				</port>
			</output>
		</layer>
		<layer id="303" name="Reshape_753_compressed" type="Const" version="opset1">
			<data element_type="f16" shape="1, 8, 1, 1" offset="1849312" size="16" />
			<output>
				<port id="0" precision="FP16">
					<dim>1</dim>
					<dim>8</dim>
					<dim>1</dim>
					<dim>1</dim>
				</port>
			</output>
		</layer>
		<layer id="304" name="Reshape_753" type="Convert" version="opset1">
			<data destination_type="f32" />
			<rt_info>
				<attribute name="decompression" version="0" />
			</rt_info>
			<input>
				<port id="0" precision="FP16">
					<dim>1</dim>
					<dim>8</dim>
					<dim>1</dim>
					<dim>1</dim>
				</port>
			</input>
			<output>
				<port id="1" precision="FP32">
					<dim>1</dim>
					<dim>8</dim>
					<dim>1</dim>
					<dim>1</dim>
				</port>
			</output>
		</layer>
		<layer id="305" name="/neural_model/separate_blocks.0/attn_conv_Q_1/attn_conv_Q_1.0/Conv" type="Add" version="opset1">
			<data auto_broadcast="numpy" />
			<input>
				<port id="0" precision="FP32">
					<dim>1</dim>
					<dim>8</dim>
					<dim>8</dim>
					<dim>161</dim>
				</port>
				<port id="1" precision="FP32">
					<dim>1</dim>
					<dim>8</dim>
					<dim>1</dim>
					<dim>1</dim>
				</port>
			</input>
			<output>
				<port id="2" precision="FP32" names="/neural_model/separate_blocks.0/attn_conv_Q_1/attn_conv_Q_1.0/Conv_output_0">
					<dim>1</dim>
					<dim>8</dim>
					<dim>8</dim>
					<dim>161</dim>
				</port>
			</output>
		</layer>
		<layer id="306" name="onnx::PRelu_4070_compressed" type="Const" version="opset1">
			<data element_type="f16" shape="1, 1, 1" offset="1849328" size="2" />
			<output>
				<port id="0" precision="FP16" names="onnx::PRelu_4070">
					<dim>1</dim>
					<dim>1</dim>
					<dim>1</dim>
				</port>
			</output>
		</layer>
		<layer id="307" name="onnx::PRelu_4070" type="Convert" version="opset1">
			<data destination_type="f32" />
			<rt_info>
				<attribute name="decompression" version="0" />
			</rt_info>
			<input>
				<port id="0" precision="FP16">
					<dim>1</dim>
					<dim>1</dim>
					<dim>1</dim>
				</port>
			</input>
			<output>
				<port id="1" precision="FP32">
					<dim>1</dim>
					<dim>1</dim>
					<dim>1</dim>
				</port>
			</output>
		</layer>
		<layer id="308" name="/neural_model/separate_blocks.0/attn_conv_Q_1/attn_conv_Q_1.1/PRelu" type="PReLU" version="opset1">
			<input>
				<port id="0" precision="FP32">
					<dim>1</dim>
					<dim>8</dim>
					<dim>8</dim>
					<dim>161</dim>
				</port>
				<port id="1" precision="FP32">
					<dim>1</dim>
					<dim>1</dim>
					<dim>1</dim>
				</port>
			</input>
			<output>
				<port id="2" precision="FP32" names="/neural_model/separate_blocks.0/attn_conv_Q_1/attn_conv_Q_1.1/PRelu_output_0">
					<dim>1</dim>
					<dim>8</dim>
					<dim>8</dim>
					<dim>161</dim>
				</port>
			</output>
		</layer>
		<layer id="309" name="Constant_756" type="Const" version="opset1">
			<data element_type="i64" shape="2" offset="1843120" size="16" />
			<output>
				<port id="0" precision="I64">
					<dim>2</dim>
				</port>
			</output>
		</layer>
		<layer id="310" name="/neural_model/separate_blocks.0/attn_conv_Q_1/attn_conv_Q_1.2/ReduceMean" type="ReduceMean" version="opset1">
			<data keep_dims="true" />
			<input>
				<port id="0" precision="FP32">
					<dim>1</dim>
					<dim>8</dim>
					<dim>8</dim>
					<dim>161</dim>
				</port>
				<port id="1" precision="I64">
					<dim>2</dim>
				</port>
			</input>
			<output>
				<port id="2" precision="FP32" names="/neural_model/separate_blocks.0/attn_conv_Q_1/attn_conv_Q_1.2/ReduceMean_output_0">
					<dim>1</dim>
					<dim>1</dim>
					<dim>8</dim>
					<dim>1</dim>
				</port>
			</output>
		</layer>
		<layer id="311" name="/neural_model/separate_blocks.0/attn_conv_Q_1/attn_conv_Q_1.2/Sub" type="Subtract" version="opset1">
			<data auto_broadcast="numpy" />
			<input>
				<port id="0" precision="FP32">
					<dim>1</dim>
					<dim>8</dim>
					<dim>8</dim>
					<dim>161</dim>
				</port>
				<port id="1" precision="FP32">
					<dim>1</dim>
					<dim>1</dim>
					<dim>8</dim>
					<dim>1</dim>
				</port>
			</input>
			<output>
				<port id="2" precision="FP32" names="/neural_model/separate_blocks.0/attn_conv_Q_1/attn_conv_Q_1.2/Sub_output_0">
					<dim>1</dim>
					<dim>8</dim>
					<dim>8</dim>
					<dim>161</dim>
				</port>
			</output>
		</layer>
		<layer id="312" name="/neural_model/separate_blocks.0/attn_conv_Q_1/attn_conv_Q_1.2/Mul" type="Multiply" version="opset1">
			<data auto_broadcast="numpy" />
			<input>
				<port id="0" precision="FP32">
					<dim>1</dim>
					<dim>8</dim>
					<dim>8</dim>
					<dim>161</dim>
				</port>
				<port id="1" precision="FP32">
					<dim>1</dim>
					<dim>8</dim>
					<dim>8</dim>
					<dim>161</dim>
				</port>
			</input>
			<output>
				<port id="2" precision="FP32" names="/neural_model/separate_blocks.0/attn_conv_Q_1/attn_conv_Q_1.2/Mul_output_0">
					<dim>1</dim>
					<dim>8</dim>
					<dim>8</dim>
					<dim>161</dim>
				</port>
			</output>
		</layer>
		<layer id="313" name="Constant_760" type="Const" version="opset1">
			<data element_type="i64" shape="2" offset="1843120" size="16" />
			<output>
				<port id="0" precision="I64">
					<dim>2</dim>
				</port>
			</output>
		</layer>
		<layer id="314" name="/neural_model/separate_blocks.0/attn_conv_Q_1/attn_conv_Q_1.2/ReduceMean_2" type="ReduceMean" version="opset1">
			<data keep_dims="true" />
			<input>
				<port id="0" precision="FP32">
					<dim>1</dim>
					<dim>8</dim>
					<dim>8</dim>
					<dim>161</dim>
				</port>
				<port id="1" precision="I64">
					<dim>2</dim>
				</port>
			</input>
			<output>
				<port id="2" precision="FP32" names="/neural_model/separate_blocks.0/attn_conv_Q_1/attn_conv_Q_1.2/ReduceMean_2_output_0">
					<dim>1</dim>
					<dim>1</dim>
					<dim>8</dim>
					<dim>1</dim>
				</port>
			</output>
		</layer>
		<layer id="315" name="Constant_5717_compressed" type="Const" version="opset1">
			<data element_type="f16" shape="1, 1, 1, 1" offset="279388" size="2" />
			<output>
				<port id="0" precision="FP16">
					<dim>1</dim>
					<dim>1</dim>
					<dim>1</dim>
					<dim>1</dim>
				</port>
			</output>
		</layer>
		<layer id="316" name="Constant_5717" type="Convert" version="opset1">
			<data destination_type="f32" />
			<rt_info>
				<attribute name="decompression" version="0" />
			</rt_info>
			<input>
				<port id="0" precision="FP16">
					<dim>1</dim>
					<dim>1</dim>
					<dim>1</dim>
					<dim>1</dim>
				</port>
			</input>
			<output>
				<port id="1" precision="FP32">
					<dim>1</dim>
					<dim>1</dim>
					<dim>1</dim>
					<dim>1</dim>
				</port>
			</output>
		</layer>
		<layer id="317" name="/neural_model/separate_blocks.0/attn_conv_Q_1/attn_conv_Q_1.2/Add" type="Add" version="opset1">
			<data auto_broadcast="numpy" />
			<input>
				<port id="0" precision="FP32">
					<dim>1</dim>
					<dim>1</dim>
					<dim>8</dim>
					<dim>1</dim>
				</port>
				<port id="1" precision="FP32">
					<dim>1</dim>
					<dim>1</dim>
					<dim>1</dim>
					<dim>1</dim>
				</port>
			</input>
			<output>
				<port id="2" precision="FP32" names="/neural_model/separate_blocks.0/attn_conv_Q_1/attn_conv_Q_1.2/Add_output_0">
					<dim>1</dim>
					<dim>1</dim>
					<dim>8</dim>
					<dim>1</dim>
				</port>
			</output>
		</layer>
		<layer id="318" name="/neural_model/separate_blocks.0/attn_conv_Q_1/attn_conv_Q_1.2/Sqrt" type="Sqrt" version="opset1">
			<input>
				<port id="0" precision="FP32">
					<dim>1</dim>
					<dim>1</dim>
					<dim>8</dim>
					<dim>1</dim>
				</port>
			</input>
			<output>
				<port id="1" precision="FP32" names="/neural_model/separate_blocks.0/attn_conv_Q_1/attn_conv_Q_1.2/Sqrt_output_0">
					<dim>1</dim>
					<dim>1</dim>
					<dim>8</dim>
					<dim>1</dim>
				</port>
			</output>
		</layer>
		<layer id="319" name="Constant_5718_compressed" type="Const" version="opset1">
			<data element_type="f16" shape="1, 1, 1, 1" offset="279388" size="2" />
			<output>
				<port id="0" precision="FP16">
					<dim>1</dim>
					<dim>1</dim>
					<dim>1</dim>
					<dim>1</dim>
				</port>
			</output>
		</layer>
		<layer id="320" name="Constant_5718" type="Convert" version="opset1">
			<data destination_type="f32" />
			<rt_info>
				<attribute name="decompression" version="0" />
			</rt_info>
			<input>
				<port id="0" precision="FP16">
					<dim>1</dim>
					<dim>1</dim>
					<dim>1</dim>
					<dim>1</dim>
				</port>
			</input>
			<output>
				<port id="1" precision="FP32">
					<dim>1</dim>
					<dim>1</dim>
					<dim>1</dim>
					<dim>1</dim>
				</port>
			</output>
		</layer>
		<layer id="321" name="/neural_model/separate_blocks.0/attn_conv_Q_1/attn_conv_Q_1.2/Add_1" type="Add" version="opset1">
			<data auto_broadcast="numpy" />
			<input>
				<port id="0" precision="FP32">
					<dim>1</dim>
					<dim>1</dim>
					<dim>8</dim>
					<dim>1</dim>
				</port>
				<port id="1" precision="FP32">
					<dim>1</dim>
					<dim>1</dim>
					<dim>1</dim>
					<dim>1</dim>
				</port>
			</input>
			<output>
				<port id="2" precision="FP32" names="/neural_model/separate_blocks.0/attn_conv_Q_1/attn_conv_Q_1.2/Add_1_output_0">
					<dim>1</dim>
					<dim>1</dim>
					<dim>8</dim>
					<dim>1</dim>
				</port>
			</output>
		</layer>
		<layer id="322" name="/neural_model/separate_blocks.0/attn_conv_Q_1/attn_conv_Q_1.2/Div" type="Divide" version="opset1">
			<data auto_broadcast="numpy" m_pythondiv="true" />
			<input>
				<port id="0" precision="FP32">
					<dim>1</dim>
					<dim>8</dim>
					<dim>8</dim>
					<dim>161</dim>
				</port>
				<port id="1" precision="FP32">
					<dim>1</dim>
					<dim>1</dim>
					<dim>8</dim>
					<dim>1</dim>
				</port>
			</input>
			<output>
				<port id="2" precision="FP32" names="/neural_model/separate_blocks.0/attn_conv_Q_1/attn_conv_Q_1.2/Div_output_0">
					<dim>1</dim>
					<dim>8</dim>
					<dim>8</dim>
					<dim>161</dim>
				</port>
			</output>
		</layer>
		<layer id="323" name="neural_model.separate_blocks.0.attn_conv_Q_1.2.gamma_compressed" type="Const" version="opset1">
			<data element_type="f16" shape="1, 8, 1, 161" offset="1849330" size="2576" />
			<output>
				<port id="0" precision="FP16" names="neural_model.separate_blocks.0.attn_conv_Q_1.2.gamma">
					<dim>1</dim>
					<dim>8</dim>
					<dim>1</dim>
					<dim>161</dim>
				</port>
			</output>
		</layer>
		<layer id="324" name="neural_model.separate_blocks.0.attn_conv_Q_1.2.gamma" type="Convert" version="opset1">
			<data destination_type="f32" />
			<rt_info>
				<attribute name="decompression" version="0" />
			</rt_info>
			<input>
				<port id="0" precision="FP16">
					<dim>1</dim>
					<dim>8</dim>
					<dim>1</dim>
					<dim>161</dim>
				</port>
			</input>
			<output>
				<port id="1" precision="FP32">
					<dim>1</dim>
					<dim>8</dim>
					<dim>1</dim>
					<dim>161</dim>
				</port>
			</output>
		</layer>
		<layer id="325" name="/neural_model/separate_blocks.0/attn_conv_Q_1/attn_conv_Q_1.2/Mul_1" type="Multiply" version="opset1">
			<data auto_broadcast="numpy" />
			<input>
				<port id="0" precision="FP32">
					<dim>1</dim>
					<dim>8</dim>
					<dim>8</dim>
					<dim>161</dim>
				</port>
				<port id="1" precision="FP32">
					<dim>1</dim>
					<dim>8</dim>
					<dim>1</dim>
					<dim>161</dim>
				</port>
			</input>
			<output>
				<port id="2" precision="FP32" names="/neural_model/separate_blocks.0/attn_conv_Q_1/attn_conv_Q_1.2/Mul_1_output_0">
					<dim>1</dim>
					<dim>8</dim>
					<dim>8</dim>
					<dim>161</dim>
				</port>
			</output>
		</layer>
		<layer id="326" name="neural_model.separate_blocks.0.attn_conv_Q_1.2.beta_compressed" type="Const" version="opset1">
			<data element_type="f16" shape="1, 8, 1, 161" offset="1851906" size="2576" />
			<output>
				<port id="0" precision="FP16" names="neural_model.separate_blocks.0.attn_conv_Q_1.2.beta">
					<dim>1</dim>
					<dim>8</dim>
					<dim>1</dim>
					<dim>161</dim>
				</port>
			</output>
		</layer>
		<layer id="327" name="neural_model.separate_blocks.0.attn_conv_Q_1.2.beta" type="Convert" version="opset1">
			<data destination_type="f32" />
			<rt_info>
				<attribute name="decompression" version="0" />
			</rt_info>
			<input>
				<port id="0" precision="FP16">
					<dim>1</dim>
					<dim>8</dim>
					<dim>1</dim>
					<dim>161</dim>
				</port>
			</input>
			<output>
				<port id="1" precision="FP32">
					<dim>1</dim>
					<dim>8</dim>
					<dim>1</dim>
					<dim>161</dim>
				</port>
			</output>
		</layer>
		<layer id="328" name="/neural_model/separate_blocks.0/attn_conv_Q_1/attn_conv_Q_1.2/Add_2" type="Add" version="opset1">
			<data auto_broadcast="numpy" />
			<input>
				<port id="0" precision="FP32">
					<dim>1</dim>
					<dim>8</dim>
					<dim>8</dim>
					<dim>161</dim>
				</port>
				<port id="1" precision="FP32">
					<dim>1</dim>
					<dim>8</dim>
					<dim>1</dim>
					<dim>161</dim>
				</port>
			</input>
			<output>
				<port id="2" precision="FP32" names="/neural_model/separate_blocks.0/attn_conv_Q_1/attn_conv_Q_1.2/Add_2_output_0">
					<dim>1</dim>
					<dim>8</dim>
					<dim>8</dim>
					<dim>161</dim>
				</port>
			</output>
		</layer>
		<layer id="329" name="neural_model.separate_blocks.0.attn_conv_Q_2.0.weight_compressed" type="Const" version="opset1">
			<data element_type="f16" shape="8, 64, 1, 1" offset="1854482" size="1024" />
			<output>
				<port id="0" precision="FP16" names="neural_model.separate_blocks.0.attn_conv_Q_2.0.weight">
					<dim>8</dim>
					<dim>64</dim>
					<dim>1</dim>
					<dim>1</dim>
				</port>
			</output>
		</layer>
		<layer id="330" name="neural_model.separate_blocks.0.attn_conv_Q_2.0.weight" type="Convert" version="opset1">
			<data destination_type="f32" />
			<rt_info>
				<attribute name="decompression" version="0" />
			</rt_info>
			<input>
				<port id="0" precision="FP16">
					<dim>8</dim>
					<dim>64</dim>
					<dim>1</dim>
					<dim>1</dim>
				</port>
			</input>
			<output>
				<port id="1" precision="FP32">
					<dim>8</dim>
					<dim>64</dim>
					<dim>1</dim>
					<dim>1</dim>
				</port>
			</output>
		</layer>
		<layer id="331" name="/neural_model/separate_blocks.0/attn_conv_Q_2/attn_conv_Q_2.0/Conv/WithoutBiases" type="Convolution" version="opset1">
			<data strides="1, 1" dilations="1, 1" pads_begin="0, 0" pads_end="0, 0" auto_pad="explicit" />
			<input>
				<port id="0" precision="FP32">
					<dim>1</dim>
					<dim>64</dim>
					<dim>8</dim>
					<dim>161</dim>
				</port>
				<port id="1" precision="FP32">
					<dim>8</dim>
					<dim>64</dim>
					<dim>1</dim>
					<dim>1</dim>
				</port>
			</input>
			<output>
				<port id="2" precision="FP32">
					<dim>1</dim>
					<dim>8</dim>
					<dim>8</dim>
					<dim>161</dim>
				</port>
			</output>
		</layer>
		<layer id="332" name="Reshape_831_compressed" type="Const" version="opset1">
			<data element_type="f16" shape="1, 8, 1, 1" offset="1855506" size="16" />
			<output>
				<port id="0" precision="FP16">
					<dim>1</dim>
					<dim>8</dim>
					<dim>1</dim>
					<dim>1</dim>
				</port>
			</output>
		</layer>
		<layer id="333" name="Reshape_831" type="Convert" version="opset1">
			<data destination_type="f32" />
			<rt_info>
				<attribute name="decompression" version="0" />
			</rt_info>
			<input>
				<port id="0" precision="FP16">
					<dim>1</dim>
					<dim>8</dim>
					<dim>1</dim>
					<dim>1</dim>
				</port>
			</input>
			<output>
				<port id="1" precision="FP32">
					<dim>1</dim>
					<dim>8</dim>
					<dim>1</dim>
					<dim>1</dim>
				</port>
			</output>
		</layer>
		<layer id="334" name="/neural_model/separate_blocks.0/attn_conv_Q_2/attn_conv_Q_2.0/Conv" type="Add" version="opset1">
			<data auto_broadcast="numpy" />
			<input>
				<port id="0" precision="FP32">
					<dim>1</dim>
					<dim>8</dim>
					<dim>8</dim>
					<dim>161</dim>
				</port>
				<port id="1" precision="FP32">
					<dim>1</dim>
					<dim>8</dim>
					<dim>1</dim>
					<dim>1</dim>
				</port>
			</input>
			<output>
				<port id="2" precision="FP32" names="/neural_model/separate_blocks.0/attn_conv_Q_2/attn_conv_Q_2.0/Conv_output_0">
					<dim>1</dim>
					<dim>8</dim>
					<dim>8</dim>
					<dim>161</dim>
				</port>
			</output>
		</layer>
		<layer id="335" name="onnx::PRelu_4073_compressed" type="Const" version="opset1">
			<data element_type="f16" shape="1, 1, 1" offset="1855522" size="2" />
			<output>
				<port id="0" precision="FP16" names="onnx::PRelu_4073">
					<dim>1</dim>
					<dim>1</dim>
					<dim>1</dim>
				</port>
			</output>
		</layer>
		<layer id="336" name="onnx::PRelu_4073" type="Convert" version="opset1">
			<data destination_type="f32" />
			<rt_info>
				<attribute name="decompression" version="0" />
			</rt_info>
			<input>
				<port id="0" precision="FP16">
					<dim>1</dim>
					<dim>1</dim>
					<dim>1</dim>
				</port>
			</input>
			<output>
				<port id="1" precision="FP32">
					<dim>1</dim>
					<dim>1</dim>
					<dim>1</dim>
				</port>
			</output>
		</layer>
		<layer id="337" name="/neural_model/separate_blocks.0/attn_conv_Q_2/attn_conv_Q_2.1/PRelu" type="PReLU" version="opset1">
			<input>
				<port id="0" precision="FP32">
					<dim>1</dim>
					<dim>8</dim>
					<dim>8</dim>
					<dim>161</dim>
				</port>
				<port id="1" precision="FP32">
					<dim>1</dim>
					<dim>1</dim>
					<dim>1</dim>
				</port>
			</input>
			<output>
				<port id="2" precision="FP32" names="/neural_model/separate_blocks.0/attn_conv_Q_2/attn_conv_Q_2.1/PRelu_output_0">
					<dim>1</dim>
					<dim>8</dim>
					<dim>8</dim>
					<dim>161</dim>
				</port>
			</output>
		</layer>
		<layer id="338" name="Constant_834" type="Const" version="opset1">
			<data element_type="i64" shape="2" offset="1843120" size="16" />
			<output>
				<port id="0" precision="I64">
					<dim>2</dim>
				</port>
			</output>
		</layer>
		<layer id="339" name="/neural_model/separate_blocks.0/attn_conv_Q_2/attn_conv_Q_2.2/ReduceMean" type="ReduceMean" version="opset1">
			<data keep_dims="true" />
			<input>
				<port id="0" precision="FP32">
					<dim>1</dim>
					<dim>8</dim>
					<dim>8</dim>
					<dim>161</dim>
				</port>
				<port id="1" precision="I64">
					<dim>2</dim>
				</port>
			</input>
			<output>
				<port id="2" precision="FP32" names="/neural_model/separate_blocks.0/attn_conv_Q_2/attn_conv_Q_2.2/ReduceMean_output_0">
					<dim>1</dim>
					<dim>1</dim>
					<dim>8</dim>
					<dim>1</dim>
…
		<edge from-layer="1440" from-port="2" to-layer="1443" to-port="0" />
		<edge from-layer="1441" from-port="0" to-layer="1442" to-port="0" />
		<edge from-layer="1442" from-port="1" to-layer="1443" to-port="1" />
		<edge from-layer="1443" from-port="2" to-layer="1446" to-port="0" />
		<edge from-layer="1444" from-port="0" to-layer="1445" to-port="0" />
		<edge from-layer="1445" from-port="1" to-layer="1446" to-port="1" />
		<edge from-layer="1446" from-port="2" to-layer="1449" to-port="0" />
		<edge from-layer="1446" from-port="2" to-layer="1448" to-port="0" />
		<edge from-layer="1447" from-port="0" to-layer="1448" to-port="1" />
		<edge from-layer="1448" from-port="2" to-layer="1449" to-port="1" />
		<edge from-layer="1449" from-port="2" to-layer="1450" to-port="0" />
		<edge from-layer="1449" from-port="2" to-layer="1450" to-port="1" />
		<edge from-layer="1449" from-port="2" to-layer="1460" to-port="0" />
		<edge from-layer="1450" from-port="2" to-layer="1452" to-port="0" />
		<edge from-layer="1451" from-port="0" to-layer="1452" to-port="1" />
		<edge from-layer="1452" from-port="2" to-layer="1455" to-port="0" />
		<edge from-layer="1453" from-port="0" to-layer="1454" to-port="0" />
		<edge from-layer="1454" from-port="1" to-layer="1455" to-port="1" />
		<edge from-layer="1455" from-port="2" to-layer="1456" to-port="0" />
		<edge from-layer="1456" from-port="1" to-layer="1459" to-port="0" />
		<edge from-layer="1457" from-port="0" to-layer="1458" to-port="0" />
		<edge from-layer="1458" from-port="1" to-layer="1459" to-port="1" />
		<edge from-layer="1459" from-port="2" to-layer="1460" to-port="1" />
		<edge from-layer="1460" from-port="2" to-layer="1463" to-port="0" />
		<edge from-layer="1461" from-port="0" to-layer="1462" to-port="0" />
		<edge from-layer="1462" from-port="1" to-layer="1463" to-port="1" />
		<edge from-layer="1463" from-port="2" to-layer="1466" to-port="0" />
		<edge from-layer="1464" from-port="0" to-layer="1465" to-port="0" />
		<edge from-layer="1465" from-port="1" to-layer="1466" to-port="1" />
		<edge from-layer="1466" from-port="2" to-layer="1467" to-port="7" />
		<edge from-layer="1467" from-port="8" to-layer="1469" to-port="0" />
		<edge from-layer="1468" from-port="0" to-layer="1469" to-port="1" />
		<edge from-layer="1469" from-port="2" to-layer="1470" to-port="0" />
		<edge from-layer="1470" from-port="2" to-layer="1722" to-port="0" />
		<edge from-layer="1471" from-port="0" to-layer="1724" to-port="1" />
		<edge from-layer="1471" from-port="0" to-layer="2014" to-port="1" />
		<edge from-layer="1471" from-port="0" to-layer="2028" to-port="2" />
		<edge from-layer="1471" from-port="0" to-layer="2019" to-port="1" />
		<edge from-layer="1471" from-port="0" to-layer="1473" to-port="1" />
		<edge from-layer="1472" from-port="0" to-layer="2063" to-port="4" />
		<edge from-layer="1472" from-port="0" to-layer="2019" to-port="4" />
		<edge from-layer="1472" from-port="0" to-layer="2028" to-port="4" />
		<edge from-layer="1472" from-port="0" to-layer="2011" to-port="4" />
		<edge from-layer="1472" from-port="0" to-layer="2036" to-port="1" />
		<edge from-layer="1472" from-port="0" to-layer="2008" to-port="4" />
		<edge from-layer="1472" from-port="0" to-layer="1473" to-port="4" />
		<edge from-layer="1473" from-port="5" to-layer="1474" to-port="0" />
		<edge from-layer="1474" from-port="2" to-layer="1476" to-port="0" />
		<edge from-layer="1475" from-port="0" to-layer="1476" to-port="1" />
		<edge from-layer="1475" from-port="0" to-layer="2021" to-port="1" />
		<edge from-layer="1476" from-port="2" to-layer="1477" to-port="2" />
		<edge from-layer="1477" from-port="3" to-layer="2022" to-port="0" />
		<edge from-layer="1477" from-port="3" to-layer="1479" to-port="0" />
		<edge from-layer="1478" from-port="0" to-layer="1479" to-port="2" />
		<edge from-layer="1479" from-port="3" to-layer="2019" to-port="0" />
		<edge from-layer="1479" from-port="3" to-layer="1718" to-port="0" />
		<edge from-layer="1480" from-port="0" to-layer="1481" to-port="0" />
		<edge from-layer="1481" from-port="1" to-layer="1482" to-port="1" />
		<edge from-layer="1482" from-port="2" to-layer="1485" to-port="0" />
		<edge from-layer="1483" from-port="0" to-layer="1484" to-port="0" />
		<edge from-layer="1484" from-port="1" to-layer="1485" to-port="1" />
		<edge from-layer="1485" from-port="2" to-layer="1488" to-port="0" />
		<edge from-layer="1486" from-port="0" to-layer="1487" to-port="0" />
		<edge from-layer="1487" from-port="1" to-layer="1488" to-port="1" />
		<edge from-layer="1488" from-port="2" to-layer="1490" to-port="0" />
		<edge from-layer="1488" from-port="2" to-layer="1491" to-port="0" />
		<edge from-layer="1489" from-port="0" to-layer="1490" to-port="1" />
		<edge from-layer="1490" from-port="2" to-layer="1491" to-port="1" />
		<edge from-layer="1491" from-port="2" to-layer="1492" to-port="0" />
		<edge from-layer="1491" from-port="2" to-layer="1492" to-port="1" />
		<edge from-layer="1491" from-port="2" to-layer="1502" to-port="0" />
		<edge from-layer="1492" from-port="2" to-layer="1494" to-port="0" />
		<edge from-layer="1493" from-port="0" to-layer="1494" to-port="1" />
		<edge from-layer="1494" from-port="2" to-layer="1497" to-port="0" />
		<edge from-layer="1495" from-port="0" to-layer="1496" to-port="0" />
		<edge from-layer="1496" from-port="1" to-layer="1497" to-port="1" />
		<edge from-layer="1497" from-port="2" to-layer="1498" to-port="0" />
		<edge from-layer="1498" from-port="1" to-layer="1501" to-port="0" />
		<edge from-layer="1499" from-port="0" to-layer="1500" to-port="0" />
		<edge from-layer="1500" from-port="1" to-layer="1501" to-port="1" />
		<edge from-layer="1501" from-port="2" to-layer="1502" to-port="1" />
		<edge from-layer="1502" from-port="2" to-layer="1505" to-port="0" />
		<edge from-layer="1503" from-port="0" to-layer="1504" to-port="0" />
		<edge from-layer="1504" from-port="1" to-layer="1505" to-port="1" />
		<edge from-layer="1505" from-port="2" to-layer="1508" to-port="0" />
		<edge from-layer="1506" from-port="0" to-layer="1507" to-port="0" />
		<edge from-layer="1507" from-port="1" to-layer="1508" to-port="1" />
		<edge from-layer="1508" from-port="2" to-layer="1712" to-port="0" />
		<edge from-layer="1509" from-port="0" to-layer="1510" to-port="0" />
		<edge from-layer="1510" from-port="1" to-layer="1511" to-port="1" />
		<edge from-layer="1511" from-port="2" to-layer="1514" to-port="0" />
		<edge from-layer="1512" from-port="0" to-layer="1513" to-port="0" />
		<edge from-layer="1513" from-port="1" to-layer="1514" to-port="1" />
		<edge from-layer="1514" from-port="2" to-layer="1517" to-port="0" />
		<edge from-layer="1515" from-port="0" to-layer="1516" to-port="0" />
		<edge from-layer="1516" from-port="1" to-layer="1517" to-port="1" />
		<edge from-layer="1517" from-port="2" to-layer="1519" to-port="0" />
		<edge from-layer="1517" from-port="2" to-layer="1520" to-port="0" />
		<edge from-layer="1518" from-port="0" to-layer="1519" to-port="1" />
		<edge from-layer="1519" from-port="2" to-layer="1520" to-port="1" />
		<edge from-layer="1520" from-port="2" to-layer="1531" to-port="0" />
		<edge from-layer="1520" from-port="2" to-layer="1521" to-port="0" />
		<edge from-layer="1520" from-port="2" to-layer="1521" to-port="1" />
		<edge from-layer="1521" from-port="2" to-layer="1523" to-port="0" />
		<edge from-layer="1522" from-port="0" to-layer="1523" to-port="1" />
		<edge from-layer="1523" from-port="2" to-layer="1526" to-port="0" />
		<edge from-layer="1524" from-port="0" to-layer="1525" to-port="0" />
		<edge from-layer="1525" from-port="1" to-layer="1526" to-port="1" />
		<edge from-layer="1526" from-port="2" to-layer="1527" to-port="0" />
		<edge from-layer="1527" from-port="1" to-layer="1530" to-port="0" />
		<edge from-layer="1528" from-port="0" to-layer="1529" to-port="0" />
		<edge from-layer="1529" from-port="1" to-layer="1530" to-port="1" />
		<edge from-layer="1530" from-port="2" to-layer="1531" to-port="1" />
		<edge from-layer="1531" from-port="2" to-layer="1534" to-port="0" />
		<edge from-layer="1532" from-port="0" to-layer="1533" to-port="0" />
		<edge from-layer="1533" from-port="1" to-layer="1534" to-port="1" />
		<edge from-layer="1534" from-port="2" to-layer="1537" to-port="0" />
		<edge from-layer="1535" from-port="0" to-layer="1536" to-port="0" />
		<edge from-layer="1536" from-port="1" to-layer="1537" to-port="1" />
		<edge from-layer="1537" from-port="2" to-layer="1712" to-port="1" />
		<edge from-layer="1538" from-port="0" to-layer="1539" to-port="0" />
		<edge from-layer="1539" from-port="1" to-layer="1540" to-port="1" />
		<edge from-layer="1540" from-port="2" to-layer="1543" to-port="0" />
		<edge from-layer="1541" from-port="0" to-layer="1542" to-port="0" />
		<edge from-layer="1542" from-port="1" to-layer="1543" to-port="1" />
		<edge from-layer="1543" from-port="2" to-layer="1546" to-port="0" />
		<edge from-layer="1544" from-port="0" to-layer="1545" to-port="0" />
		<edge from-layer="1545" from-port="1" to-layer="1546" to-port="1" />
		<edge from-layer="1546" from-port="2" to-layer="1549" to-port="0" />
		<edge from-layer="1546" from-port="2" to-layer="1548" to-port="0" />
		<edge from-layer="1547" from-port="0" to-layer="1548" to-port="1" />
		<edge from-layer="1548" from-port="2" to-layer="1549" to-port="1" />
		<edge from-layer="1549" from-port="2" to-layer="1560" to-port="0" />
		<edge from-layer="1549" from-port="2" to-layer="1550" to-port="0" />
		<edge from-layer="1549" from-port="2" to-layer="1550" to-port="1" />
		<edge from-layer="1550" from-port="2" to-layer="1552" to-port="0" />
		<edge from-layer="1551" from-port="0" to-layer="1552" to-port="1" />
		<edge from-layer="1552" from-port="2" to-layer="1555" to-port="0" />
		<edge from-layer="1553" from-port="0" to-layer="1554" to-port="0" />
		<edge from-layer="1554" from-port="1" to-layer="1555" to-port="1" />
		<edge from-layer="1555" from-port="2" to-layer="1556" to-port="0" />
		<edge from-layer="1556" from-port="1" to-layer="1559" to-port="0" />
		<edge from-layer="1557" from-port="0" to-layer="1558" to-port="0" />
		<edge from-layer="1558" from-port="1" to-layer="1559" to-port="1" />
		<edge from-layer="1559" from-port="2" to-layer="1560" to-port="1" />
		<edge from-layer="1560" from-port="2" to-layer="1563" to-port="0" />
		<edge from-layer="1561" from-port="0" to-layer="1562" to-port="0" />
		<edge from-layer="1562" from-port="1" to-layer="1563" to-port="1" />
		<edge from-layer="1563" from-port="2" to-layer="1566" to-port="0" />
		<edge from-layer="1564" from-port="0" to-layer="1565" to-port="0" />
		<edge from-layer="1565" from-port="1" to-layer="1566" to-port="1" />
		<edge from-layer="1566" from-port="2" to-layer="1712" to-port="2" />
		<edge from-layer="1567" from-port="0" to-layer="1568" to-port="0" />
		<edge from-layer="1568" from-port="1" to-layer="1569" to-port="1" />
		<edge from-layer="1569" from-port="2" to-layer="1572" to-port="0" />
		<edge from-layer="1570" from-port="0" to-layer="1571" to-port="0" />
		<edge from-layer="1571" from-port="1" to-layer="1572" to-port="1" />
		<edge from-layer="1572" from-port="2" to-layer="1575" to-port="0" />
		<edge from-layer="1573" from-port="0" to-layer="1574" to-port="0" />
		<edge from-layer="1574" from-port="1" to-layer="1575" to-port="1" />
		<edge from-layer="1575" from-port="2" to-layer="1577" to-port="0" />
		<edge from-layer="1575" from-port="2" to-layer="1578" to-port="0" />
		<edge from-layer="1576" from-port="0" to-layer="1577" to-port="1" />
		<edge from-layer="1577" from-port="2" to-layer="1578" to-port="1" />
		<edge from-layer="1578" from-port="2" to-layer="1579" to-port="1" />
		<edge from-layer="1578" from-port="2" to-layer="1579" to-port="0" />
		<edge from-layer="1578" from-port="2" to-layer="1589" to-port="0" />
		<edge from-layer="1579" from-port="2" to-layer="1581" to-port="0" />
		<edge from-layer="1580" from-port="0" to-layer="1581" to-port="1" />
		<edge from-layer="1581" from-port="2" to-layer="1584" to-port="0" />
		<edge from-layer="1582" from-port="0" to-layer="1583" to-port="0" />
		<edge from-layer="1583" from-port="1" to-layer="1584" to-port="1" />
		<edge from-layer="1584" from-port="2" to-layer="1585" to-port="0" />
		<edge from-layer="1585" from-port="1" to-layer="1588" to-port="0" />
		<edge from-layer="1586" from-port="0" to-layer="1587" to-port="0" />
		<edge from-layer="1587" from-port="1" to-layer="1588" to-port="1" />
		<edge from-layer="1588" from-port="2" to-layer="1589" to-port="1" />
		<edge from-layer="1589" from-port="2" to-layer="1592" to-port="0" />
		<edge from-layer="1590" from-port="0" to-layer="1591" to-port="0" />
		<edge from-layer="1591" from-port="1" to-layer="1592" to-port="1" />
		<edge from-layer="1592" from-port="2" to-layer="1595" to-port="0" />
		<edge from-layer="1593" from-port="0" to-layer="1594" to-port="0" />
		<edge from-layer="1594" from-port="1" to-layer="1595" to-port="1" />
		<edge from-layer="1595" from-port="2" to-layer="1712" to-port="3" />
		<edge from-layer="1596" from-port="0" to-layer="1597" to-port="0" />
		<edge from-layer="1597" from-port="1" to-layer="1598" to-port="1" />
		<edge from-layer="1598" from-port="2" to-layer="1601" to-port="0" />
		<edge from-layer="1599" from-port="0" to-layer="1600" to-port="0" />
		<edge from-layer="1600" from-port="1" to-layer="1601" to-port="1" />
		<edge from-layer="1601" from-port="2" to-layer="1604" to-port="0" />
		<edge from-layer="1602" from-port="0" to-layer="1603" to-port="0" />
		<edge from-layer="1603" from-port="1" to-layer="1604" to-port="1" />
		<edge from-layer="1604" from-port="2" to-layer="1607" to-port="0" />
		<edge from-layer="1604" from-port="2" to-layer="1606" to-port="0" />
		<edge from-layer="1605" from-port="0" to-layer="1606" to-port="1" />
		<edge from-layer="1606" from-port="2" to-layer="1607" to-port="1" />
		<edge from-layer="1607" from-port="2" to-layer="1608" to-port="0" />
		<edge from-layer="1607" from-port="2" to-layer="1608" to-port="1" />
		<edge from-layer="1607" from-port="2" to-layer="1618" to-port="0" />
		<edge from-layer="1608" from-port="2" to-layer="1610" to-port="0" />
		<edge from-layer="1609" from-port="0" to-layer="1610" to-port="1" />
		<edge from-layer="1610" from-port="2" to-layer="1613" to-port="0" />
		<edge from-layer="1611" from-port="0" to-layer="1612" to-port="0" />
		<edge from-layer="1612" from-port="1" to-layer="1613" to-port="1" />
		<edge from-layer="1613" from-port="2" to-layer="1614" to-port="0" />
		<edge from-layer="1614" from-port="1" to-layer="1617" to-port="0" />
		<edge from-layer="1615" from-port="0" to-layer="1616" to-port="0" />
		<edge from-layer="1616" from-port="1" to-layer="1617" to-port="1" />
		<edge from-layer="1617" from-port="2" to-layer="1618" to-port="1" />
		<edge from-layer="1618" from-port="2" to-layer="1621" to-port="0" />
		<edge from-layer="1619" from-port="0" to-layer="1620" to-port="0" />
		<edge from-layer="1620" from-port="1" to-layer="1621" to-port="1" />
		<edge from-layer="1621" from-port="2" to-layer="1624" to-port="0" />
		<edge from-layer="1622" from-port="0" to-layer="1623" to-port="0" />
		<edge from-layer="1623" from-port="1" to-layer="1624" to-port="1" />
		<edge from-layer="1624" from-port="2" to-layer="1712" to-port="4" />
		<edge from-layer="1625" from-port="0" to-layer="1626" to-port="0" />
		<edge from-layer="1626" from-port="1" to-layer="1627" to-port="1" />
		<edge from-layer="1627" from-port="2" to-layer="1630" to-port="0" />
		<edge from-layer="1628" from-port="0" to-layer="1629" to-port="0" />
		<edge from-layer="1629" from-port="1" to-layer="1630" to-port="1" />
		<edge from-layer="1630" from-port="2" to-layer="1633" to-port="0" />
		<edge from-layer="1631" from-port="0" to-layer="1632" to-port="0" />
		<edge from-layer="1632" from-port="1" to-layer="1633" to-port="1" />
		<edge from-layer="1633" from-port="2" to-layer="1636" to-port="0" />
		<edge from-layer="1633" from-port="2" to-layer="1635" to-port="0" />
		<edge from-layer="1634" from-port="0" to-layer="1635" to-port="1" />
		<edge from-layer="1635" from-port="2" to-layer="1636" to-port="1" />
		<edge from-layer="1636" from-port="2" to-layer="1637" to-port="1" />
		<edge from-layer="1636" from-port="2" to-layer="1637" to-port="0" />
		<edge from-layer="1636" from-port="2" to-layer="1647" to-port="0" />
		<edge from-layer="1637" from-port="2" to-layer="1639" to-port="0" />
		<edge from-layer="1638" from-port="0" to-layer="1639" to-port="1" />
		<edge from-layer="1639" from-port="2" to-layer="1642" to-port="0" />
		<edge from-layer="1640" from-port="0" to-layer="1641" to-port="0" />
		<edge from-layer="1641" from-port="1" to-layer="1642" to-port="1" />
		<edge from-layer="1642" from-port="2" to-layer="1643" to-port="0" />
		<edge from-layer="1643" from-port="1" to-layer="1646" to-port="0" />
		<edge from-layer="1644" from-port="0" to-layer="1645" to-port="0" />
		<edge from-layer="1645" from-port="1" to-layer="1646" to-port="1" />
		<edge from-layer="1646" from-port="2" to-layer="1647" to-port="1" />
		<edge from-layer="1647" from-port="2" to-layer="1650" to-port="0" />
		<edge from-layer="1648" from-port="0" to-layer="1649" to-port="0" />
		<edge from-layer="1649" from-port="1" to-layer="1650" to-port="1" />
		<edge from-layer="1650" from-port="2" to-layer="1653" to-port="0" />
		<edge from-layer="1651" from-port="0" to-layer="1652" to-port="0" />
		<edge from-layer="1652" from-port="1" to-layer="1653" to-port="1" />
		<edge from-layer="1653" from-port="2" to-layer="1712" to-port="5" />
		<edge from-layer="1654" from-port="0" to-layer="1655" to-port="0" />
		<edge from-layer="1655" from-port="1" to-layer="1656" to-port="1" />
		<edge from-layer="1656" from-port="2" to-layer="1659" to-port="0" />
		<edge from-layer="1657" from-port="0" to-layer="1658" to-port="0" />
		<edge from-layer="1658" from-port="1" to-layer="1659" to-port="1" />
		<edge from-layer="1659" from-port="2" to-layer="1662" to-port="0" />
		<edge from-layer="1660" from-port="0" to-layer="1661" to-port="0" />
		<edge from-layer="1661" from-port="1" to-layer="1662" to-port="1" />
		<edge from-layer="1662" from-port="2" to-layer="1665" to-port="0" />
		<edge from-layer="1662" from-port="2" to-layer="1664" to-port="0" />
		<edge from-layer="1663" from-port="0" to-layer="1664" to-port="1" />
		<edge from-layer="1664" from-port="2" to-layer="1665" to-port="1" />
		<edge from-layer="1665" from-port="2" to-layer="1666" to-port="1" />
		<edge from-layer="1665" from-port="2" to-layer="1666" to-port="0" />
		<edge from-layer="1665" from-port="2" to-layer="1676" to-port="0" />
		<edge from-layer="1666" from-port="2" to-layer="1668" to-port="0" />
		<edge from-layer="1667" from-port="0" to-layer="1668" to-port="1" />
		<edge from-layer="1668" from-port="2" to-layer="1671" to-port="0" />
		<edge from-layer="1669" from-port="0" to-layer="1670" to-port="0" />
		<edge from-layer="1670" from-port="1" to-layer="1671" to-port="1" />
		<edge from-layer="1671" from-port="2" to-layer="1672" to-port="0" />
		<edge from-layer="1672" from-port="1" to-layer="1675" to-port="0" />
		<edge from-layer="1673" from-port="0" to-layer="1674" to-port="0" />
		<edge from-layer="1674" from-port="1" to-layer="1675" to-port="1" />
		<edge from-layer="1675" from-port="2" to-layer="1676" to-port="1" />
		<edge from-layer="1676" from-port="2" to-layer="1679" to-port="0" />
		<edge from-layer="1677" from-port="0" to-layer="1678" to-port="0" />
		<edge from-layer="1678" from-port="1" to-layer="1679" to-port="1" />
		<edge from-layer="1679" from-port="2" to-layer="1682" to-port="0" />
		<edge from-layer="1680" from-port="0" to-layer="1681" to-port="0" />
		<edge from-layer="1681" from-port="1" to-layer="1682" to-port="1" />
		<edge from-layer="1682" from-port="2" to-layer="1712" to-port="6" />
		<edge from-layer="1683" from-port="0" to-layer="1684" to-port="0" />
		<edge from-layer="1684" from-port="1" to-layer="1685" to-port="1" />
		<edge from-layer="1685" from-port="2" to-layer="1688" to-port="0" />
		<edge from-layer="1686" from-port="0" to-layer="1687" to-port="0" />
		<edge from-layer="1687" from-port="1" to-layer="1688" to-port="1" />
		<edge from-layer="1688" from-port="2" to-layer="1691" to-port="0" />
		<edge from-layer="1689" from-port="0" to-layer="1690" to-port="0" />
		<edge from-layer="1690" from-port="1" to-layer="1691" to-port="1" />
		<edge from-layer="1691" from-port="2" to-layer="1693" to-port="0" />
		<edge from-layer="1691" from-port="2" to-layer="1694" to-port="0" />
		<edge from-layer="1692" from-port="0" to-layer="1693" to-port="1" />
		<edge from-layer="1693" from-port="2" to-layer="1694" to-port="1" />
		<edge from-layer="1694" from-port="2" to-layer="1695" to-port="0" />
		<edge from-layer="1694" from-port="2" to-layer="1695" to-port="1" />
		<edge from-layer="1694" from-port="2" to-layer="1705" to-port="0" />
		<edge from-layer="1695" from-port="2" to-layer="1697" to-port="0" />
		<edge from-layer="1696" from-port="0" to-layer="1697" to-port="1" />
		<edge from-layer="1697" from-port="2" to-layer="1700" to-port="0" />
		<edge from-layer="1698" from-port="0" to-layer="1699" to-port="0" />
		<edge from-layer="1699" from-port="1" to-layer="1700" to-port="1" />
		<edge from-layer="1700" from-port="2" to-layer="1701" to-port="0" />
		<edge from-layer="1701" from-port="1" to-layer="1704" to-port="0" />
		<edge from-layer="1702" from-port="0" to-layer="1703" to-port="0" />
		<edge from-layer="1703" from-port="1" to-layer="1704" to-port="1" />
		<edge from-layer="1704" from-port="2" to-layer="1705" to-port="1" />
		<edge from-layer="1705" from-port="2" to-layer="1708" to-port="0" />
		<edge from-layer="1706" from-port="0" to-layer="1707" to-port="0" />
		<edge from-layer="1707" from-port="1" to-layer="1708" to-port="1" />
		<edge from-layer="1708" from-port="2" to-layer="1711" to-port="0" />
		<edge from-layer="1709" from-port="0" to-layer="1710" to-port="0" />
		<edge from-layer="1710" from-port="1" to-layer="1711" to-port="1" />
		<edge from-layer="1711" from-port="2" to-layer="1712" to-port="7" />
		<edge from-layer="1712" from-port="8" to-layer="1714" to-port="0" />
		<edge from-layer="1713" from-port="0" to-layer="1714" to-port="1" />
		<edge from-layer="1714" from-port="2" to-layer="1715" to-port="0" />
		<edge from-layer="1715" from-port="2" to-layer="1717" to-port="0" />
		<edge from-layer="1716" from-port="0" to-layer="1717" to-port="1" />
		<edge from-layer="1717" from-port="2" to-layer="1718" to-port="1" />
		<edge from-layer="1717" from-port="2" to-layer="2020" to-port="1" />
		<edge from-layer="1718" from-port="2" to-layer="1721" to-port="0" />
		<edge from-layer="1719" from-port="0" to-layer="1720" to-port="0" />
		<edge from-layer="1720" from-port="1" to-layer="1721" to-port="1" />
		<edge from-layer="1721" from-port="2" to-layer="1722" to-port="1" />
		<edge from-layer="1722" from-port="2" to-layer="1723" to-port="0" />
		<edge from-layer="1723" from-port="1" to-layer="1968" to-port="0" />
		<edge from-layer="1724" from-port="5" to-layer="1725" to-port="0" />
		<edge from-layer="1725" from-port="2" to-layer="1727" to-port="0" />
		<edge from-layer="1726" from-port="0" to-layer="1727" to-port="1" />
		<edge from-layer="1726" from-port="0" to-layer="2016" to-port="1" />
		<edge from-layer="1727" from-port="2" to-layer="1728" to-port="2" />
		<edge from-layer="1728" from-port="3" to-layer="1730" to-port="0" />
		<edge from-layer="1728" from-port="3" to-layer="2017" to-port="0" />
		<edge from-layer="1729" from-port="0" to-layer="1730" to-port="2" />
		<edge from-layer="1730" from-port="3" to-layer="2014" to-port="0" />
		<edge from-layer="1730" from-port="3" to-layer="1967" to-port="0" />
		<edge from-layer="1731" from-port="0" to-layer="1732" to-port="0" />
		<edge from-layer="1732" from-port="1" to-layer="1733" to-port="1" />
		<edge from-layer="1733" from-port="2" to-layer="1736" to-port="0" />
		<edge from-layer="1734" from-port="0" to-layer="1735" to-port="0" />
		<edge from-layer="1735" from-port="1" to-layer="1736" to-port="1" />
		<edge from-layer="1736" from-port="2" to-layer="1739" to-port="0" />
		<edge from-layer="1737" from-port="0" to-layer="1738" to-port="0" />
		<edge from-layer="1738" from-port="1" to-layer="1739" to-port="1" />
		<edge from-layer="1739" from-port="2" to-layer="1741" to-port="0" />
		<edge from-layer="1739" from-port="2" to-layer="1742" to-port="0" />
		<edge from-layer="1740" from-port="0" to-layer="1741" to-port="1" />
		<edge from-layer="1741" from-port="2" to-layer="1742" to-port="1" />
		<edge from-layer="1742" from-port="2" to-layer="1743" to-port="1" />
		<edge from-layer="1742" from-port="2" to-layer="1743" to-port="0" />
		<edge from-layer="1742" from-port="2" to-layer="1753" to-port="0" />
		<edge from-layer="1743" from-port="2" to-layer="1745" to-port="0" />
		<edge from-layer="1744" from-port="0" to-layer="1745" to-port="1" />
		<edge from-layer="1745" from-port="2" to-layer="1748" to-port="0" />
		<edge from-layer="1746" from-port="0" to-layer="1747" to-port="0" />
		<edge from-layer="1747" from-port="1" to-layer="1748" to-port="1" />
		<edge from-layer="1748" from-port="2" to-layer="1749" to-port="0" />
		<edge from-layer="1749" from-port="1" to-layer="1752" to-port="0" />
		<edge from-layer="1750" from-port="0" to-layer="1751" to-port="0" />
		<edge from-layer="1751" from-port="1" to-layer="1752" to-port="1" />
		<edge from-layer="1752" from-port="2" to-layer="1753" to-port="1" />
		<edge from-layer="1753" from-port="2" to-layer="1756" to-port="0" />
		<edge from-layer="1754" from-port="0" to-layer="1755" to-port="0" />
		<edge from-layer="1755" from-port="1" to-layer="1756" to-port="1" />
		<edge from-layer="1756" from-port="2" to-layer="1759" to-port="0" />
		<edge from-layer="1757" from-port="0" to-layer="1758" to-port="0" />
		<edge from-layer="1758" from-port="1" to-layer="1759" to-port="1" />
		<edge from-layer="1759" from-port="2" to-layer="1963" to-port="0" />
		<edge from-layer="1760" from-port="0" to-layer="1761" to-port="0" />
		<edge from-layer="1761" from-port="1" to-layer="1762" to-port="1" />
		<edge from-layer="1762" from-port="2" to-layer="1765" to-port="0" />
		<edge from-layer="1763" from-port="0" to-layer="1764" to-port="0" />
		<edge from-layer="1764" from-port="1" to-layer="1765" to-port="1" />
		<edge from-layer="1765" from-port="2" to-layer="1768" to-port="0" />
		<edge from-layer="1766" from-port="0" to-layer="1767" to-port="0" />
		<edge from-layer="1767" from-port="1" to-layer="1768" to-port="1" />
		<edge from-layer="1768" from-port="2" to-layer="1770" to-port="0" />
		<edge from-layer="1768" from-port="2" to-layer="1771" to-port="0" />
		<edge from-layer="1769" from-port="0" to-layer="1770" to-port="1" />
		<edge from-layer="1770" from-port="2" to-layer="1771" to-port="1" />
		<edge from-layer="1771" from-port="2" to-layer="1772" to-port="0" />
		<edge from-layer="1771" from-port="2" to-layer="1772" to-port="1" />
		<edge from-layer="1771" from-port="2" to-layer="1782" to-port="0" />
		<edge from-layer="1772" from-port="2" to-layer="1774" to-port="0" />
		<edge from-layer="1773" from-port="0" to-layer="1774" to-port="1" />
		<edge from-layer="1774" from-port="2" to-layer="1777" to-port="0" />
		<edge from-layer="1775" from-port="0" to-layer="1776" to-port="0" />
		<edge from-layer="1776" from-port="1" to-layer="1777" to-port="1" />
		<edge from-layer="1777" from-port="2" to-layer="1778" to-port="0" />
		<edge from-layer="1778" from-port="1" to-layer="1781" to-port="0" />
		<edge from-layer="1779" from-port="0" to-layer="1780" to-port="0" />
		<edge from-layer="1780" from-port="1" to-layer="1781" to-port="1" />
		<edge from-layer="1781" from-port="2" to-layer="1782" to-port="1" />
		<edge from-layer="1782" from-port="2" to-layer="1785" to-port="0" />
		<edge from-layer="1783" from-port="0" to-layer="1784" to-port="0" />
		<edge from-layer="1784" from-port="1" to-layer="1785" to-port="1" />
		<edge from-layer="1785" from-port="2" to-layer="1788" to-port="0" />
		<edge from-layer="1786" from-port="0" to-layer="1787" to-port="0" />
		<edge from-layer="1787" from-port="1" to-layer="1788" to-port="1" />
		<edge from-layer="1788" from-port="2" to-layer="1963" to-port="1" />
		<edge from-layer="1789" from-port="0" to-layer="1790" to-port="0" />
		<edge from-layer="1790" from-port="1" to-layer="1791" to-port="1" />
		<edge from-layer="1791" from-port="2" to-layer="1794" to-port="0" />
		<edge from-layer="1792" from-port="0" to-layer="1793" to-port="0" />
		<edge from-layer="1793" from-port="1" to-layer="1794" to-port="1" />
		<edge from-layer="1794" from-port="2" to-layer="1797" to-port="0" />
		<edge from-layer="1795" from-port="0" to-layer="1796" to-port="0" />
		<edge from-layer="1796" from-port="1" to-layer="1797" to-port="1" />
		<edge from-layer="1797" from-port="2" to-layer="1800" to-port="0" />
		<edge from-layer="1797" from-port="2" to-layer="1799" to-port="0" />
		<edge from-layer="1798" from-port="0" to-layer="1799" to-port="1" />
		<edge from-layer="1799" from-port="2" to-layer="1800" to-port="1" />
		<edge from-layer="1800" from-port="2" to-layer="1801" to-port="0" />
		<edge from-layer="1800" from-port="2" to-layer="1801" to-port="1" />
		<edge from-layer="1800" from-port="2" to-layer="1811" to-port="0" />
		<edge from-layer="1801" from-port="2" to-layer="1803" to-port="0" />
		<edge from-layer="1802" from-port="0" to-layer="1803" to-port="1" />
		<edge from-layer="1803" from-port="2" to-layer="1806" to-port="0" />
		<edge from-layer="1804" from-port="0" to-layer="1805" to-port="0" />
		<edge from-layer="1805" from-port="1" to-layer="1806" to-port="1" />
		<edge from-layer="1806" from-port="2" to-layer="1807" to-port="0" />
		<edge from-layer="1807" from-port="1" to-layer="1810" to-port="0" />
		<edge from-layer="1808" from-port="0" to-layer="1809" to-port="0" />
		<edge from-layer="1809" from-port="1" to-layer="1810" to-port="1" />
		<edge from-layer="1810" from-port="2" to-layer="1811" to-port="1" />
		<edge from-layer="1811" from-port="2" to-layer="1814" to-port="0" />
		<edge from-layer="1812" from-port="0" to-layer="1813" to-port="0" />
		<edge from-layer="1813" from-port="1" to-layer="1814" to-port="1" />
		<edge from-layer="1814" from-port="2" to-layer="1817" to-port="0" />
		<edge from-layer="1815" from-port="0" to-layer="1816" to-port="0" />
		<edge from-layer="1816" from-port="1" to-layer="1817" to-port="1" />
		<edge from-layer="1817" from-port="2" to-layer="1963" to-port="2" />
		<edge from-layer="1818" from-port="0" to-layer="1819" to-port="0" />
		<edge from-layer="1819" from-port="1" to-layer="1820" to-port="1" />
		<edge from-layer="1820" from-port="2" to-layer="1823" to-port="0" />
		<edge from-layer="1821" from-port="0" to-layer="1822" to-port="0" />
		<edge from-layer="1822" from-port="1" to-layer="1823" to-port="1" />
		<edge from-layer="1823" from-port="2" to-layer="1826" to-port="0" />
		<edge from-layer="1824" from-port="0" to-layer="1825" to-port="0" />
		<edge from-layer="1825" from-port="1" to-layer="1826" to-port="1" />
		<edge from-layer="1826" from-port="2" to-layer="1829" to-port="0" />
		<edge from-layer="1826" from-port="2" to-layer="1828" to-port="0" />
		<edge from-layer="1827" from-port="0" to-layer="1828" to-port="1" />
		<edge from-layer="1828" from-port="2" to-layer="1829" to-port="1" />
		<edge from-layer="1829" from-port="2" to-layer="1840" to-port="0" />
		<edge from-layer="1829" from-port="2" to-layer="1830" to-port="1" />
		<edge from-layer="1829" from-port="2" to-layer="1830" to-port="0" />
		<edge from-layer="1830" from-port="2" to-layer="1832" to-port="0" />
		<edge from-layer="1831" from-port="0" to-layer="1832" to-port="1" />
		<edge from-layer="1832" from-port="2" to-layer="1835" to-port="0" />
		<edge from-layer="1833" from-port="0" to-layer="1834" to-port="0" />
		<edge from-layer="1834" from-port="1" to-layer="1835" to-port="1" />
		<edge from-layer="1835" from-port="2" to-layer="1836" to-port="0" />
		<edge from-layer="1836" from-port="1" to-layer="1839" to-port="0" />
		<edge from-layer="1837" from-port="0" to-layer="1838" to-port="0" />
		<edge from-layer="1838" from-port="1" to-layer="1839" to-port="1" />
		<edge from-layer="1839" from-port="2" to-layer="1840" to-port="1" />
		<edge from-layer="1840" from-port="2" to-layer="1843" to-port="0" />
		<edge from-layer="1841" from-port="0" to-layer="1842" to-port="0" />
		<edge from-layer="1842" from-port="1" to-layer="1843" to-port="1" />
		<edge from-layer="1843" from-port="2" to-layer="1846" to-port="0" />
		<edge from-layer="1844" from-port="0" to-layer="1845" to-port="0" />
		<edge from-layer="1845" from-port="1" to-layer="1846" to-port="1" />
		<edge from-layer="1846" from-port="2" to-layer="1963" to-port="3" />
		<edge from-layer="1847" from-port="0" to-layer="1848" to-port="0" />
		<edge from-layer="1848" from-port="1" to-layer="1849" to-port="1" />
		<edge from-layer="1849" from-port="2" to-layer="1852" to-port="0" />
		<edge from-layer="1850" from-port="0" to-layer="1851" to-port="0" />
		<edge from-layer="1851" from-port="1" to-layer="1852" to-port="1" />
		<edge from-layer="1852" from-port="2" to-layer="1855" to-port="0" />
		<edge from-layer="1853" from-port="0" to-layer="1854" to-port="0" />
		<edge from-layer="1854" from-port="1" to-layer="1855" to-port="1" />
		<edge from-layer="1855" from-port="2" to-layer="1857" to-port="0" />
		<edge from-layer="1855" from-port="2" to-layer="1858" to-port="0" />
		<edge from-layer="1856" from-port="0" to-layer="1857" to-port="1" />
		<edge from-layer="1857" from-port="2" to-layer="1858" to-port="1" />
		<edge from-layer="1858" from-port="2" to-layer="1859" to-port="0" />
		<edge from-layer="1858" from-port="2" to-layer="1859" to-port="1" />
		<edge from-layer="1858" from-port="2" to-layer="1869" to-port="0" />
		<edge from-layer="1859" from-port="2" to-layer="1861" to-port="0" />
		<edge from-layer="1860" from-port="0" to-layer="1861" to-port="1" />
		<edge from-layer="1861" from-port="2" to-layer="1864" to-port="0" />
		<edge from-layer="1862" from-port="0" to-layer="1863" to-port="0" />
		<edge from-layer="1863" from-port="1" to-layer="1864" to-port="1" />
		<edge from-layer="1864" from-port="2" to-layer="1865" to-port="0" />
		<edge from-layer="1865" from-port="1" to-layer="1868" to-port="0" />
		<edge from-layer="1866" from-port="0" to-layer="1867" to-port="0" />
		<edge from-layer="1867" from-port="1" to-layer="1868" to-port="1" />
		<edge from-layer="1868" from-port="2" to-layer="1869" to-port="1" />
		<edge from-layer="1869" from-port="2" to-layer="1872" to-port="0" />
		<edge from-layer="1870" from-port="0" to-layer="1871" to-port="0" />
		<edge from-layer="1871" from-port="1" to-layer="1872" to-port="1" />
		<edge from-layer="1872" from-port="2" to-layer="1875" to-port="0" />
		<edge from-layer="1873" from-port="0" to-layer="1874" to-port="0" />
		<edge from-layer="1874" from-port="1" to-layer="1875" to-port="1" />
		<edge from-layer="1875" from-port="2" to-layer="1963" to-port="4" />
		<edge from-layer="1876" from-port="0" to-layer="1877" to-port="0" />
		<edge from-layer="1877" from-port="1" to-layer="1878" to-port="1" />
		<edge from-layer="1878" from-port="2" to-layer="1881" to-port="0" />
		<edge from-layer="1879" from-port="0" to-layer="1880" to-port="0" />
		<edge from-layer="1880" from-port="1" to-layer="1881" to-port="1" />
		<edge from-layer="1881" from-port="2" to-layer="1884" to-port="0" />
		<edge from-layer="1882" from-port="0" to-layer="1883" to-port="0" />
		<edge from-layer="1883" from-port="1" to-layer="1884" to-port="1" />
		<edge from-layer="1884" from-port="2" to-layer="1886" to-port="0" />
		<edge from-layer="1884" from-port="2" to-layer="1887" to-port="0" />
		<edge from-layer="1885" from-port="0" to-layer="1886" to-port="1" />
		<edge from-layer="1886" from-port="2" to-layer="1887" to-port="1" />
		<edge from-layer="1887" from-port="2" to-layer="1898" to-port="0" />
		<edge from-layer="1887" from-port="2" to-layer="1888" to-port="0" />
		<edge from-layer="1887" from-port="2" to-layer="1888" to-port="1" />
		<edge from-layer="1888" from-port="2" to-layer="1890" to-port="0" />
		<edge from-layer="1889" from-port="0" to-layer="1890" to-port="1" />
		<edge from-layer="1890" from-port="2" to-layer="1893" to-port="0" />
		<edge from-layer="1891" from-port="0" to-layer="1892" to-port="0" />
		<edge from-layer="1892" from-port="1" to-layer="1893" to-port="1" />
		<edge from-layer="1893" from-port="2" to-layer="1894" to-port="0" />
		<edge from-layer="1894" from-port="1" to-layer="1897" to-port="0" />
		<edge from-layer="1895" from-port="0" to-layer="1896" to-port="0" />
		<edge from-layer="1896" from-port="1" to-layer="1897" to-port="1" />
		<edge from-layer="1897" from-port="2" to-layer="1898" to-port="1" />
		<edge from-layer="1898" from-port="2" to-layer="1901" to-port="0" />
		<edge from-layer="1899" from-port="0" to-layer="1900" to-port="0" />
		<edge from-layer="1900" from-port="1" to-layer="1901" to-port="1" />
		<edge from-layer="1901" from-port="2" to-layer="1904" to-port="0" />
		<edge from-layer="1902" from-port="0" to-layer="1903" to-port="0" />
		<edge from-layer="1903" from-port="1" to-layer="1904" to-port="1" />
		<edge from-layer="1904" from-port="2" to-layer="1963" to-port="5" />
		<edge from-layer="1905" from-port="0" to-layer="1906" to-port="0" />
		<edge from-layer="1906" from-port="1" to-layer="1907" to-port="1" />
		<edge from-layer="1907" from-port="2" to-layer="1910" to-port="0" />
		<edge from-layer="1908" from-port="0" to-layer="1909" to-port="0" />
		<edge from-layer="1909" from-port="1" to-layer="1910" to-port="1" />
		<edge from-layer="1910" from-port="2" to-layer="1913" to-port="0" />
		<edge from-layer="1911" from-port="0" to-layer="1912" to-port="0" />
		<edge from-layer="1912" from-port="1" to-layer="1913" to-port="1" />
		<edge from-layer="1913" from-port="2" to-layer="1915" to-port="0" />
		<edge from-layer="1913" from-port="2" to-layer="1916" to-port="0" />
		<edge from-layer="1914" from-port="0" to-layer="1915" to-port="1" />
		<edge from-layer="1915" from-port="2" to-layer="1916" to-port="1" />
		<edge from-layer="1916" from-port="2" to-layer="1917" to-port="1" />
		<edge from-layer="1916" from-port="2" to-layer="1917" to-port="0" />
		<edge from-layer="1916" from-port="2" to-layer="1927" to-port="0" />
		<edge from-layer="1917" from-port="2" to-layer="1919" to-port="0" />
		<edge from-layer="1918" from-port="0" to-layer="1919" to-port="1" />
		<edge from-layer="1919" from-port="2" to-layer="1922" to-port="0" />
		<edge from-layer="1920" from-port="0" to-layer="1921" to-port="0" />
		<edge from-layer="1921" from-port="1" to-layer="1922" to-port="1" />
		<edge from-layer="1922" from-port="2" to-layer="1923" to-port="0" />
		<edge from-layer="1923" from-port="1" to-layer="1926" to-port="0" />
		<edge from-layer="1924" from-port="0" to-layer="1925" to-port="0" />
		<edge from-layer="1925" from-port="1" to-layer="1926" to-port="1" />
		<edge from-layer="1926" from-port="2" to-layer="1927" to-port="1" />
		<edge from-layer="1927" from-port="2" to-layer="1930" to-port="0" />
		<edge from-layer="1928" from-port="0" to-layer="1929" to-port="0" />
		<edge from-layer="1929" from-port="1" to-layer="1930" to-port="1" />
		<edge from-layer="1930" from-port="2" to-layer="1933" to-port="0" />
		<edge from-layer="1931" from-port="0" to-layer="1932" to-port="0" />
		<edge from-layer="1932" from-port="1" to-layer="1933" to-port="1" />
		<edge from-layer="1933" from-port="2" to-layer="1963" to-port="6" />
		<edge from-layer="1934" from-port="0" to-layer="1935" to-port="0" />
		<edge from-layer="1935" from-port="1" to-layer="1936" to-port="1" />
		<edge from-layer="1936" from-port="2" to-layer="1939" to-port="0" />
		<edge from-layer="1937" from-port="0" to-layer="1938" to-port="0" />
		<edge from-layer="1938" from-port="1" to-layer="1939" to-port="1" />
		<edge from-layer="1939" from-port="2" to-layer="1942" to-port="0" />
		<edge from-layer="1940" from-port="0" to-layer="1941" to-port="0" />
		<edge from-layer="1941" from-port="1" to-layer="1942" to-port="1" />
		<edge from-layer="1942" from-port="2" to-layer="1944" to-port="0" />
		<edge from-layer="1942" from-port="2" to-layer="1945" to-port="0" />
		<edge from-layer="1943" from-port="0" to-layer="1944" to-port="1" />
		<edge from-layer="1944" from-port="2" to-layer="1945" to-port="1" />
		<edge from-layer="1945" from-port="2" to-layer="1946" to-port="0" />
		<edge from-layer="1945" from-port="2" to-layer="1946" to-port="1" />
		<edge from-layer="1945" from-port="2" to-layer="1956" to-port="0" />
		<edge from-layer="1946" from-port="2" to-layer="1948" to-port="0" />
		<edge from-layer="1947" from-port="0" to-layer="1948" to-port="1" />
		<edge from-layer="1948" from-port="2" to-layer="1951" to-port="0" />
		<edge from-layer="1949" from-port="0" to-layer="1950" to-port="0" />
		<edge from-layer="1950" from-port="1" to-layer="1951" to-port="1" />
		<edge from-layer="1951" from-port="2" to-layer="1952" to-port="0" />
		<edge from-layer="1952" from-port="1" to-layer="1955" to-port="0" />
		<edge from-layer="1953" from-port="0" to-layer="1954" to-port="0" />
		<edge from-layer="1954" from-port="1" to-layer="1955" to-port="1" />
		<edge from-layer="1955" from-port="2" to-layer="1956" to-port="1" />
		<edge from-layer="1956" from-port="2" to-layer="1959" to-port="0" />
		<edge from-layer="1957" from-port="0" to-layer="1958" to-port="0" />
		<edge from-layer="1958" from-port="1" to-layer="1959" to-port="1" />
		<edge from-layer="1959" from-port="2" to-layer="1962" to-port="0" />
		<edge from-layer="1960" from-port="0" to-layer="1961" to-port="0" />
		<edge from-layer="1961" from-port="1" to-layer="1962" to-port="1" />
		<edge from-layer="1962" from-port="2" to-layer="1963" to-port="7" />
		<edge from-layer="1963" from-port="8" to-layer="1965" to-port="0" />
		<edge from-layer="1964" from-port="0" to-layer="1965" to-port="1" />
		<edge from-layer="1965" from-port="2" to-layer="1966" to-port="0" />
		<edge from-layer="1966" from-port="2" to-layer="2015" to-port="1" />
		<edge from-layer="1966" from-port="2" to-layer="1967" to-port="1" />
		<edge from-layer="1967" from-port="2" to-layer="1968" to-port="1" />
		<edge from-layer="1968" from-port="2" to-layer="1969" to-port="0" />
		<edge from-layer="1969" from-port="2" to-layer="1971" to-port="0" />
		<edge from-layer="1970" from-port="0" to-layer="1971" to-port="1" />
		<edge from-layer="1971" from-port="2" to-layer="1973" to-port="0" />
		<edge from-layer="1972" from-port="0" to-layer="1973" to-port="1" />
		<edge from-layer="1973" from-port="2" to-layer="1976" to-port="0" />
		<edge from-layer="1974" from-port="0" to-layer="1975" to-port="0" />
		<edge from-layer="1975" from-port="1" to-layer="1976" to-port="1" />
		<edge from-layer="1976" from-port="2" to-layer="1979" to-port="0" />
		<edge from-layer="1977" from-port="0" to-layer="1978" to-port="0" />
		<edge from-layer="1978" from-port="1" to-layer="1979" to-port="1" />
		<edge from-layer="1979" from-port="2" to-layer="1982" to-port="0" />
		<edge from-layer="1980" from-port="0" to-layer="1981" to-port="0" />
		<edge from-layer="1981" from-port="1" to-layer="1982" to-port="1" />
		<edge from-layer="1982" from-port="2" to-layer="1984" to-port="0" />
		<edge from-layer="1982" from-port="2" to-layer="1985" to-port="0" />
		<edge from-layer="1983" from-port="0" to-layer="1984" to-port="1" />
		<edge from-layer="1984" from-port="2" to-layer="1985" to-port="1" />
		<edge from-layer="1985" from-port="2" to-layer="1986" to-port="1" />
		<edge from-layer="1985" from-port="2" to-layer="1996" to-port="0" />
		<edge from-layer="1985" from-port="2" to-layer="1986" to-port="0" />
		<edge from-layer="1986" from-port="2" to-layer="1988" to-port="0" />
		<edge from-layer="1987" from-port="0" to-layer="1988" to-port="1" />
		<edge from-layer="1988" from-port="2" to-layer="1991" to-port="0" />
		<edge from-layer="1989" from-port="0" to-layer="1990" to-port="0" />
		<edge from-layer="1990" from-port="1" to-layer="1991" to-port="1" />
		<edge from-layer="1991" from-port="2" to-layer="1992" to-port="0" />
		<edge from-layer="1992" from-port="1" to-layer="1995" to-port="0" />
		<edge from-layer="1993" from-port="0" to-layer="1994" to-port="0" />
		<edge from-layer="1994" from-port="1" to-layer="1995" to-port="1" />
		<edge from-layer="1995" from-port="2" to-layer="1996" to-port="1" />
		<edge from-layer="1996" from-port="2" to-layer="1999" to-port="0" />
		<edge from-layer="1997" from-port="0" to-layer="1998" to-port="0" />
		<edge from-layer="1998" from-port="1" to-layer="1999" to-port="1" />
		<edge from-layer="1999" from-port="2" to-layer="2002" to-port="0" />
		<edge from-layer="2000" from-port="0" to-layer="2001" to-port="0" />
		<edge from-layer="2001" from-port="1" to-layer="2002" to-port="1" />
		<edge from-layer="2002" from-port="2" to-layer="2003" to-port="0" />
		<edge from-layer="2003" from-port="2" to-layer="2006" to-port="0" />
		<edge from-layer="2004" from-port="0" to-layer="2005" to-port="0" />
		<edge from-layer="2005" from-port="1" to-layer="2006" to-port="1" />
		<edge from-layer="2006" from-port="2" to-layer="2028" to-port="0" />
		<edge from-layer="2006" from-port="2" to-layer="2008" to-port="0" />
		<edge from-layer="2007" from-port="0" to-layer="2011" to-port="1" />
		<edge from-layer="2007" from-port="0" to-layer="2008" to-port="1" />
		<edge from-layer="2008" from-port="5" to-layer="2009" to-port="2" />
		<edge from-layer="2009" from-port="3" to-layer="2010" to-port="0" />
		<edge from-layer="2011" from-port="5" to-layer="2012" to-port="0" />
		<edge from-layer="2013" from-port="0" to-layer="2022" to-port="1" />
		<edge from-layer="2013" from-port="0" to-layer="2026" to-port="1" />
		<edge from-layer="2013" from-port="0" to-layer="2017" to-port="1" />
		<edge from-layer="2014" from-port="5" to-layer="2015" to-port="0" />
		<edge from-layer="2015" from-port="2" to-layer="2016" to-port="0" />
		<edge from-layer="2016" from-port="2" to-layer="2017" to-port="2" />
		<edge from-layer="2017" from-port="3" to-layer="2018" to-port="0" />
		<edge from-layer="2019" from-port="5" to-layer="2020" to-port="0" />
		<edge from-layer="2020" from-port="2" to-layer="2021" to-port="0" />
		<edge from-layer="2021" from-port="2" to-layer="2022" to-port="2" />
		<edge from-layer="2022" from-port="3" to-layer="2023" to-port="0" />
		<edge from-layer="2024" from-port="0" to-layer="2025" to-port="1" />
		<edge from-layer="2025" from-port="2" to-layer="2026" to-port="2" />
		<edge from-layer="2026" from-port="3" to-layer="2027" to-port="0" />
		<edge from-layer="2028" from-port="5" to-layer="2029" to-port="0" />
		<edge from-layer="2029" from-port="2" to-layer="2031" to-port="0" />
		<edge from-layer="2030" from-port="0" to-layer="2031" to-port="1" />
		<edge from-layer="2031" from-port="2" to-layer="2032" to-port="1" />
		<edge from-layer="2032" from-port="2" to-layer="2042" to-port="0" />
		<edge from-layer="2032" from-port="2" to-layer="2044" to-port="0" />
		<edge from-layer="2032" from-port="2" to-layer="2035" to-port="0" />
		<edge from-layer="2033" from-port="0" to-layer="2035" to-port="1" />
		<edge from-layer="2034" from-port="0" to-layer="2035" to-port="2" />
		<edge from-layer="2035" from-port="3" to-layer="2036" to-port="0" />
		<edge from-layer="2036" from-port="2" to-layer="2037" to-port="0" />
		<edge from-layer="2038" from-port="0" to-layer="2039" to-port="1" />
		<edge from-layer="2038" from-port="0" to-layer="2063" to-port="2" />
		<edge from-layer="2039" from-port="5" to-layer="2040" to-port="0" />
		<edge from-layer="2041" from-port="0" to-layer="2042" to-port="2" />
		<edge from-layer="2042" from-port="3" to-layer="2045" to-port="0" />
		<edge from-layer="2043" from-port="0" to-layer="2044" to-port="2" />
		<edge from-layer="2044" from-port="3" to-layer="2045" to-port="1" />
		<edge from-layer="2045" from-port="2" to-layer="2048" to-port="0" />
		<edge from-layer="2046" from-port="0" to-layer="2047" to-port="0" />
		<edge from-layer="2047" from-port="1" to-layer="2048" to-port="1" />
		<edge from-layer="2048" from-port="2" to-layer="2052" to-port="0" />
		<edge from-layer="2048" from-port="2" to-layer="2058" to-port="0" />
		<edge from-layer="2049" from-port="0" to-layer="2058" to-port="1" />
		<edge from-layer="2050" from-port="0" to-layer="2052" to-port="1" />
		<edge from-layer="2051" from-port="0" to-layer="2052" to-port="2" />
		<edge from-layer="2052" from-port="3" to-layer="2055" to-port="0" />
		<edge from-layer="2053" from-port="0" to-layer="2054" to-port="0" />
		<edge from-layer="2054" from-port="1" to-layer="2055" to-port="1" />
		<edge from-layer="2055" from-port="2" to-layer="2057" to-port="0" />
		<edge from-layer="2056" from-port="0" to-layer="2057" to-port="1" />
		<edge from-layer="2057" from-port="2" to-layer="2058" to-port="2" />
		<edge from-layer="2058" from-port="3" to-layer="2061" to-port="0" />
		<edge from-layer="2059" from-port="0" to-layer="2060" to-port="0" />
		<edge from-layer="2060" from-port="1" to-layer="2061" to-port="1" />
		<edge from-layer="2061" from-port="2" to-layer="2063" to-port="0" />
		<edge from-layer="2062" from-port="0" to-layer="2063" to-port="1" />
		<edge from-layer="2063" from-port="5" to-layer="2064" to-port="0" />
		<edge from-layer="2064" from-port="2" to-layer="2066" to-port="0" />
		<edge from-layer="2065" from-port="0" to-layer="2066" to-port="2" />
		<edge from-layer="2066" from-port="3" to-layer="2067" to-port="0" />
		<edge from-layer="2067" from-port="2" to-layer="2068" to-port="0" />
	</edges>
	<rt_info>
		<Runtime_version value="2024.5.0-17288-7975fa5da0c-refs/pull/3856/head" />
		<conversion_parameters>
			<input_model value="DIR\Simplified_gridnet_init.onnx" />
			<is_python_object value="False" />
			<verbose value="True" />
		</conversion_parameters>
	</rt_info>
</net>
